local_NN.pth (torch, 5473 bytes, 5 tensors)

linear1.weight f4 [16, 1]
000000 4b d7 3a bf 45 c9 c5 be c3 05 43 be 38 87 7d 3b
       -0.7298476 -0.3863012 -0.19045167 0.0038685333
000010 ac 65 87 be af 7a e6 3e db ac 19 be e0 c7 db 3e
       -0.26444757 0.45015475 -0.15007345 0.4292593
000020 6e 95 84 bc ab 71 f6 be 1c e0 3a bf 4a 41 5a 3f
       -0.016184535 -0.48133597 -0.72998214 0.85255873
000030 5d 8a 7c 3e ba 08 a0 bd 7b f5 ac bd 8e 22 6a 3f
       0.24662156 -0.078141645 -0.08445259 0.91458976

linear1.bias f4 [16]
000000 5c d9 fa 3e 98 36 07 be 1a f4 c3 3f 2a 4f 7b bd
       0.48993957 -0.1320442 1.5308869 -0.061354794
000010 6b 2d 0d bd f7 49 39 3f 4e 19 24 bf 0b 27 2e bf
       -0.034467142 0.72378486 -0.6410111 -0.68028325
000020 39 06 7a 3f 3d 01 1b be bf bb 81 3f 0f 33 38 3e
       0.97665745 -0.15137191 1.013542 0.17988227
000030 21 45 7a 3f 12 5b bc 3f 06 32 c8 3f 61 00 3f bf
       0.9776173 1.4715292 1.5640266 -0.74609953

linear2.weight f4 [32, 16]
000000 12 4a bf bd 3e be 8c 3d 4c 71 15 3e 40 3b 91 3d
       -0.093403 0.06872223 0.14594 0.07091379
000010 cc 48 60 be e4 f2 34 be 1c 24 13 3d fa c3 8f 3d
       -0.2190277 -0.1767078 0.03592311 0.070198014
000020 b6 ac 7f bd b4 ae 95 bd 99 e0 86 bd 80 d1 c3 3d
       -0.06242057 -0.073087126 -0.06585807 0.09561443
000030 8d af d0 3d ad 9d 3b 3d e8 86 66 3d 12 d4 59 be
       0.10189734 0.04580467 0.056281 -0.21272305
000040 43 9b 3d be 02 62 38 3e 51 fb 0c bd ef 4a e0 3d
       -0.18516259 0.18006137 -0.03441936 0.109517924
000050 e5 42 2a bd ca e5 bc bc ec b0 14 be 50 9a 16 bd
       -0.0415677 -0.02305879 -0.14520615 -0.036768258
000060 3d d7 3c be 3c 50 39 3e 96 79 74 be 51 a9 14 3e
       -0.18441482 0.18097013 -0.23874506 0.14517714
000070 f4 2e 12 3e c1 70 5a be 35 30 4c be 36 e1 80 be
       0.14275724 -0.21332075 -0.19940265 -0.25171822
000080 fc cb c5 be ba 73 91 3c 0f 62 04 be 94 bd b8 bd
       -0.3863219 0.017755378 -0.12928031 -0.09020534
000090 f9 99 9a bc bf cc 3c 3e d7 21 e0 3c 2c 8d 1f 3e
       -0.018872248 0.1843748 0.027359886 0.15581197
0000a0 5e 6b ba 3e 7b d3 02 be 8d e2 bb be 61 80 05 3e
       0.3641004 -0.12775986 -0.36696282 0.13037254
0000b0 44 b1 cc 3e 70 fd 42 3f a3 7d 71 3f 1a 6b 3d 3e
       0.39978993 0.76167965 0.9433233 0.18497887
0000c0 34 57 0f be ee e3 16 be 92 da 3a 3d 8e b3 b6 be
       -0.13998109 -0.14735386 0.0456186 -0.35683864
0000d0 c8 a2 c6 3d b1 0e a8 be 94 87 d0 3d 98 4b 01 be
       0.09699017 -0.3282371 0.101821095 -0.12626493
0000e0 05 e9 8f be d4 dd eb bd e4 bd 8e be 93 d3 a2 bc
       -0.28107467 -0.1151692 -0.2787925 -0.019876277
0000f0 42 6d cc bd 02 99 dc 3d bf 89 6f 3d 24 54 5b be
       -0.09981777 0.107713714 0.058480974 -0.21418816
000100 96 74 73 bd c8 d8 82 3d e1 73 b9 3e d1 5c 5d 3d
       -0.059437357 0.06389004 0.3622122 0.054043595
000110 c9 6b b1 bd fd 38 48 3e 9c ef 93 3d 72 86 83 3d
       -0.086631365 0.1955299 0.07223436 0.06422128
000120 b6 a5 19 bd 61 41 4b be e2 21 14 be 3b 14 58 bd
       -0.03751155 -0.19849159 -0.1446605 -0.05275367
000130 41 a4 47 3c b1 79 a7 3e 3b de f2 3e d6 08 83 be
       0.012185157 0.3271003 0.47435173 -0.2559268
000140 75 cd 11 be 10 24 03 bd 12 8e f1 3e d5 13 1f bd
       -0.14238532 -0.032016814 0.47178704 -0.038837273
000150 05 3a 91 3e 50 41 29 bd aa 40 9d bd 89 65 5b bf
       0.28364578 -0.041322052 -0.07678349 -0.85701805
000160 5b e1 17 3f e3 93 06 be b2 f5 88 3e 95 bb 11 be
       0.5932824 -0.13142352 0.2674995 -0.14231713
000170 48 be 5c bd fe bd 9d 3e 60 b7 8b 3e 97 18 2a bf
       -0.053892404 0.30809015 0.27288342 -0.6644377
000180 8c 87 d3 3d 5a b9 28 3e 6a 3a b9 3d 26 68 40 be
       0.10328588 0.16476956 0.09044345 -0.1878973
000190 fa 3c cb 3d db 2a b2 bc 8b d7 0b be d4 e2 8e bd
       0.0992374 -0.02174895 -0.13656442 -0.06976858
0001a0 50 02 22 be 08 79 b2 bd 85 19 91 be 30 53 61 bd
       -0.15821195 -0.08714491 -0.28339782 -0.055010974
0001b0 ce 24 25 be ed e0 91 be a7 80 a0 bd 20 56 82 3d
       -0.16127321 -0.28491917 -0.078370385 0.06364083
0001c0 a1 1c 89 3d f3 9f 87 be 27 99 f8 3d 52 14 84 be
       0.06694914 -0.2648922 0.121385865 -0.25796753
0001d0 27 03 38 bd 14 1e f1 3d 02 90 74 be 65 54 95 be
       -0.04492488 0.11773315 -0.2388306 -0.2916595
0001e0 d8 e4 cc 3d 8c 97 18 3e bb bc a4 bd 6d ac 5f 3c
       0.10004586 0.1490156 -0.0804381 0.013651949
0001f0 72 b1 7d be 9a 55 f2 bd d5 6c a4 3d 88 d2 13 3e
       -0.24774721 -0.118327335 0.080285706 0.1443578
000200 da 2b 46 be 94 b4 d2 bd 64 7e 7e be 98 b6 df 3d
       -0.19352666 -0.10288349 -0.24852902 0.10923499
000210 28 6b b1 3d 64 57 1f be e8 5f d5 3d 60 1c d7 bd
       0.086630166 -0.1556068 0.10418683 -0.10503459
000220 24 e9 3c be fe 21 3d 3e c6 2e 2e be ac dd 41 be
       -0.18448311 0.18469998 -0.1701003 -0.18932217
000230 78 c9 d4 bd 88 aa f2 3d c8 88 8d bd b8 3f 5a be
       -0.103899896 0.118489325 -0.069108546 -0.2131337
000240 50 4f 39 3e 57 dc d0 3c 60 92 83 3e 51 69 b6 3d
       0.18096662 0.025495691 0.25697613 0.08906806
000250 39 be b8 3d cc e4 99 3e 35 3d d3 bd 74 8a 14 bf
       0.09020657 0.3005737 -0.10314409 -0.5802376
000260 9f 92 f4 3e f3 32 40 3e d3 79 9d 3e 66 3c ba bd
       0.47768113 0.18769436 0.30757007 -0.09093551
000270 dd 72 d7 bc eb c6 3a 3e 5b c1 0f 3f 65 73 1f bf
       -0.026299888 0.18239944 0.5615441 -0.62285453
000280 3b 65 1c bf f3 1c 5a bf 8c ce 9d be b0 4d 7f be
       -0.61091965 -0.85200423 -0.30821645 -0.24931979
000290 12 8d 29 bf 05 06 eb 3d 5b 75 05 bf 06 58 db bd
       -0.6623088 0.114757575 -0.52132195 -0.107101485
0002a0 bc 4f e1 3e 50 76 2a bf c9 95 6f bf fc 7e 5f 3e
       0.44006145 -0.6658678 -0.9358793 0.21825784
0002b0 b3 be c2 3e 65 ab 15 3f 3f 65 93 3f 91 55 8a 3e
       0.38036117 0.5846465 1.1515273 0.27018407
0002c0 2e 33 ef be fe d3 bb bd 58 62 83 bc db 9c 5a 3e
       -0.46718735 -0.09171294 -0.016038105 0.21348898
0002d0 10 16 3e bd 78 e0 d5 bd ec e2 71 3d 81 d8 0e 3e
       -0.04640776 -0.10443205 0.0590543 0.13949777
0002e0 98 de 0c 3f 2e 80 ea bd 4f 50 db be 66 5b 99 3e
       0.5502715 -0.114502296 -0.42834708 0.29952544
0002f0 54 b7 ae 3d 6c ae 3e 3f a7 05 8f 3f 47 0a 2c 3e
       0.08531061 0.74484897 1.11736 0.16800795
000300 54 33 9b 3d de 22 a2 bd 4e 57 c6 bd 24 9d 6b be
       0.075781494 -0.07916807 -0.09684621 -0.23009163
000310 a2 5f fe 3d fa cd 1e 3e 64 77 f7 3d 1c ad 56 be
       0.12420584 0.15508261 0.12083319 -0.20964473
000320 2e 3f 99 be 38 e9 19 be 54 8b 0f bd 0f 40 1f 3e
       -0.29931015 -0.15030372 -0.035044983 0.1555178
000330 4d 2f 91 3d e6 ea 5f be 69 43 10 be a5 4f 97 be
       0.070891 -0.2186695 -0.14088215 -0.2955295
000340 7c 2a 9c 3d 10 da ac bc 9f 65 e1 bd cd b5 7c be
       0.07625291 -0.021100074 -0.11005711 -0.24678726
000350 d8 fc 20 3e fb b7 bb bc c0 ca 3b 3c af 8e 20 be
       0.15721452 -0.022914877 0.011461914 -0.1567943
000360 3f cf fe bd 4c 80 3f be 1a 68 5c be c4 f6 aa bd
       -0.12441873 -0.18701285 -0.21524087 -0.08347848
000370 94 57 f2 3d 0c fe 42 3e 42 82 33 be c0 d3 be 3d
       0.118331105 0.19042224 -0.17530158 0.09317732
000380 4c a5 56 be 2a ed 22 be 3c fd b8 bd 44 fb 77 3e
       -0.20961493 -0.15910783 -0.090326756 0.24216944
000390 c0 e8 ba 3d 28 24 96 3d 20 20 3b be 30 2b 98 bc
       0.09126425 0.07331115 -0.18273973 -0.01857528
0003a0 e8 16 05 bd ca dd 16 be 4e 23 75 be c2 96 5c be
       -0.03249255 -0.14733043 -0.23939249 -0.21541885
0003b0 e4 f7 99 bd 60 e1 0f be ba 5a 48 3e cc fe df 3d
       -0.075179845 -0.14050817 0.1956586 0.109372705
0003c0 00 f5 dd bb b0 72 4a 3e ae b2 a4 3e 9d 61 c3 bd
       -0.006773591 0.19770312 0.32167572 -0.09540103
0003d0 2e 3c b7 bd 1b 9d 26 3d 14 01 78 be c6 11 16 3e
       -0.08947025 0.04067717 -0.24219161 0.14655218
0003e0 4c 18 b4 3d d5 3c 2a be 43 0f 6e 3e 71 c0 b4 bd
       0.08793697 -0.16624768 0.2324801 -0.08825768
0003f0 85 24 ca bd 80 e9 08 3f a2 f3 12 3f ed df 02 be
       -0.09870247 0.5348129 0.57403004 -0.12780733

linear2.bias f4 [32]
000000 c3 20 8c be bd d5 3b bd a9 2f 4f 3e 7e b9 9a be
       -0.27368745 -0.045858134 0.20233025 -0.30219644
000010 9a b6 8b 3e 98 1a 21 3f 66 4e a4 3d 44 0d 96 be
       0.2728775 0.62931204 0.08022766 -0.29306996
000020 70 81 eb 3c 71 10 08 3f 7b 02 31 3e cd 2d 8b 3e
       0.028748244 0.5315009 0.17286102 0.2718338
000030 c6 1f 44 3d 67 fe 6c be 48 1f 81 3d 61 41 33 3e
       0.047881864 -0.23143922 0.063047945 0.17505409
000040 68 98 4c be af d0 15 3e 21 06 8d be f7 1d 4e 3e
       -0.19980013 0.14630388 -0.27543738 0.20128618
000050 d4 50 c9 bd 08 57 0c 3f a0 e6 f7 bc a4 ce a2 3e
       -0.0982987 0.548203 -0.030261338 0.3179828
000060 e7 c7 49 bf cc 2e 13 be 92 58 4e 3e 9e 3f 1c be
       -0.7882065 -0.1437332 0.20150974 -0.15258643
000070 fd 33 da 3e c4 dd e3 bd 59 24 a6 3e 68 53 16 be
       0.4261779 -0.11126283 0.32449606 -0.14680254

linear3.weight f4 [1, 32]
000000 a9 75 cf bb 59 44 0f 3d 44 52 77 be 4c 1f 30 3c
       -0.006331165 0.03497729 -0.24152476 0.010749649
000010 f2 f5 16 3d ec ed 9f 3e 2b cd 91 bd 44 ff ac bb
       0.036855645 0.31236207 -0.07119211 -0.0052794535
000020 6c a2 48 3d 5a c0 52 3e 9a ee 5e be 98 8e 54 be
       0.048983023 0.20581189 -0.21770707 -0.2075752
000030 70 fe c0 3d fa a0 cd 3a ca 17 d2 bd 64 1c 2b 3e
       0.0942353 0.0015688234 -0.10258444 0.16710049
000040 b7 6b a6 3e 04 9f 78 3e d8 f0 83 bd 05 68 a3 bb
       0.32504055 0.2427941 -0.06442422 -0.0049867653
000050 88 a3 19 3d 9a 8f b7 bd c3 fe 1b be d1 7f 59 3e
       0.03750947 -0.08962937 -0.15233903 0.21240164
000060 57 5b 3e bf c0 2a 47 bd a7 ca 12 be 50 7d 1b 3e
       -0.74358124 -0.048624754 -0.14335118 0.15184522
000070 03 34 37 be 04 d1 58 bd fc 50 74 be ab 0e f7 bd
       -0.17890935 -0.052933708 -0.23859018 -0.120633446
