local_NN.pth (torch, 5473 bytes, 5 tensors)

linear1.weight f4 [16, 1]
000000 b0 b0 33 bf bf a4 1d bf 53 42 ad be 5c 91 74 3d
       -0.7019148 -0.6157951 -0.33839664 0.059708938
000010 55 a1 dc be 14 7c 0c 3f 25 97 bc be b4 b7 0d 3f
       -0.43091837 0.5487683 -0.36834064 0.55358434
000020 2e cf 47 3c ae f8 00 bf ca 72 45 bf 29 21 6e 3f
       0.012195392 -0.50379455 -0.7712828 0.9301935
000030 2b b6 93 3e 7a 3d 88 bd 72 9b 86 bd 62 cd 6b 3f
       0.2884992 -0.06652351 -0.065726176 0.92110264

linear1.bias f4 [16]
000000 0e f3 dd 3e 25 30 06 be 65 24 b2 3f 6a f2 65 be
       0.433495 -0.13104303 1.3917357 -0.22455755
000010 73 a2 e8 be ef 06 44 3f fb 4e 36 bf a5 e5 7e bf
       -0.4543644 0.7657308 -0.71214265 -0.9956916
000020 59 33 63 3f b9 4c 76 be 83 70 86 3f c5 41 21 3e
       0.88750225 -0.24052705 1.0503086 0.15747745
000030 c5 15 8c 3f 2a 92 9c 3f 6d 0a 95 3f 1f b8 67 bf
       1.0944144 1.2232106 1.1643807 -0.9051532

linear2.weight f4 [32, 16]
000000 db e7 3b bc bf 9e 21 3e d8 5f c6 3e 27 4c 2b bd
       -0.011468853 0.15783213 0.38744998 -0.04182067
000010 5a f2 e0 bd cb 3f 0e be ca 7c 95 3d 03 87 4a 3c
       -0.10983725 -0.13891523 0.07299192 0.012361291
000020 5c 17 89 3e d4 31 33 3b e1 59 8e bc 77 24 e8 3d
       0.26775634 0.0027342932 -0.017376842 0.1133508
000030 3b 3d 48 3e 02 a3 f5 3e e8 31 d7 3e ff 65 78 be
       0.19554608 0.47975928 0.42030263 -0.24257658
000040 4b c8 3f be 02 62 38 3e 29 d5 0a bd 9f 95 df 3d
       -0.1872875 0.18006137 -0.03389469 0.1091721
000050 0a 62 05 bc da fb bb bc ec b0 14 be e6 e7 15 bd
       -0.00814105 -0.02294724 -0.14520615 -0.03659811
000060 ac 61 3d be 3c 50 39 3e f3 fe 78 be 92 ce 14 3e
       -0.1849429 0.18097013 -0.24316005 0.14531925
000070 be 37 12 3e 21 0c 5b be 6e 73 4c be 17 d0 80 be
       0.14279076 -0.21391346 -0.19965908 -0.2515876
000080 9f 3e ed be 57 06 ad be 19 95 8f be 18 f0 dd bc
       -0.4633684 -0.337939 -0.2804344 -0.027092025
000090 db 8a 2a be 78 1f 22 3e ba 0e 26 be a9 f6 1e 3e
       -0.16654532 0.15832317 -0.16216555 0.15523781
0000a0 55 62 8f 3e f3 a5 af be 65 41 05 bf dd 11 ea 3d
       0.2800471 -0.34306297 -0.5205291 0.114291884
0000b0 f3 94 b8 3e d0 04 10 3f c4 e8 43 3f f8 b6 44 3e
       0.3605114 0.56257343 0.7652705 0.19210422
0000c0 eb 88 8b bd b6 46 c9 3d 11 47 66 be 07 49 8b be
       -0.068132244 0.0982794 -0.22488047 -0.27204153
0000d0 26 85 84 3e 66 76 14 3e 0a ec e5 3e 8f 3f c0 be
       0.25882834 0.1449829 0.44906646 -0.3754849
0000e0 65 b9 f0 3e e0 62 ec 3d 6a d9 2d be 57 50 7b 3e
       0.47016445 0.115422964 -0.16977468 0.24542366
0000f0 62 14 07 3f 7f 08 73 3f 71 47 46 3f 8f 10 b2 be
       0.52765477 0.9493484 0.7745276 -0.34778258
000100 c0 9a bd bd c4 d2 41 3d f6 b0 d7 3e bc 44 4e bd
       -0.09258032 0.047320142 0.42127198 -0.05035852
000110 97 1d a3 bd 24 d4 4b 3e 04 67 3d bb 3e c5 d1 bc
       -0.07964628 0.19905144 -0.0028900513 -0.025606748
000120 ce 4c dc 3d 79 8a 6e be 29 75 19 be 14 17 6a bd
       0.10756837 -0.2329501 -0.149861 -0.057150915
000130 88 e5 43 3d 29 c3 18 3f d4 de 31 3f bf e5 a1 be
       0.04782632 0.5967279 0.69480634 -0.31620595
000140 8d d5 18 be 23 8d 0a 3c f7 4f ec 3e 9a 9b 47 be
       -0.14925213 0.008456501 0.46154758 -0.19492951
000150 7d 8f a8 3e 30 48 95 bc af 90 1a bd d0 a8 1d bf
       0.32921973 -0.018222898 -0.037735637 -0.6158571
000160 0f 3b 12 3f b5 9f de bd 58 80 8a 3e 3e 2a 7f 3a
       0.57121366 -0.108703054 0.27051044 0.00097337726
000170 3c db 8f 3d 8b 63 91 3e f2 f5 75 3e d6 93 e4 be
       0.070242375 0.28396258 0.24019602 -0.4464404
000180 ac 43 d3 3d ca 78 28 3e 45 11 b9 3d 26 68 40 be
       0.10315642 0.16452327 0.09036497 -0.1878973
000190 44 f3 ca 3d 0d 3d 86 bd d2 3c 0c be d4 e2 8e bd
       0.099096805 -0.06554613 -0.13695076 -0.06976858
0001a0 fb ea 21 be b2 e0 b2 bd 94 2c 91 be 30 53 61 bd
       -0.15812294 -0.087342635 -0.28354323 -0.055010974
0001b0 22 e2 23 be bf db 91 be d2 c2 a0 bd 20 56 82 3d
       -0.16004232 -0.28487965 -0.07849659 0.06364083
0001c0 e1 81 da 3d a5 1f 6b be a0 ea 0e 3e 96 f6 7f be
       0.10669304 -0.2296129 0.1395669 -0.24996409
0001d0 10 1d a0 bb fe b1 f8 3d 28 4f 34 be ca 21 94 be
       -0.004886277 0.12143324 -0.1760832 -0.2893203
0001e0 a2 ca 0a 3e 02 45 52 3e 6a d8 3a bd 48 01 8e 3c
       0.13553861 0.20534137 -0.045616545 0.017334595
0001f0 94 86 76 be e4 81 75 bd e3 f6 08 3e d4 b0 16 3e
       -0.24074775 -0.059938326 0.1337543 0.14715892
000200 da 2b 46 be 94 b4 d2 bd 64 7e 7e be 98 b6 df 3d
       -0.19352666 -0.10288349 -0.24852902 0.10923499
000210 28 6b b1 3d 64 57 1f be e8 5f d5 3d 60 1c d7 bd
       0.086630166 -0.1556068 0.10418683 -0.10503459
000220 24 e9 3c be fe 21 3d 3e c6 2e 2e be ac dd 41 be
       -0.18448311 0.18469998 -0.1701003 -0.18932217
000230 78 c9 d4 bd 88 aa f2 3d c8 88 8d bd b8 3f 5a be
       -0.103899896 0.118489325 -0.069108546 -0.2131337
000240 e1 4d 46 3e 23 c0 a6 3d ba c7 81 3e e6 23 95 be
       0.19365646 0.08142116 0.25347692 -0.2912895
000250 1b 88 1c 3e 05 c4 5b 3e 66 7e 63 bd f3 5f 13 bf
       0.15286295 0.21461494 -0.055540465 -0.5756828
000260 71 9a d5 3e d4 54 69 3e ed 36 a9 3e 86 42 fe bd
       0.41719392 0.22786266 0.33049718 -0.12415032
000270 4f be 8b 3c 5b 9b 03 3e a3 4e fd 3e 8b 26 0c bf
       0.01705852 0.12852232 0.49474058 -0.5474631
000280 30 88 42 3e 60 08 aa be 9d 74 4b bd 3a 3e 3b be
       0.18997264 -0.33209515 -0.049671758 -0.18285456
000290 e7 c6 9e bd a5 b3 c2 3d ce 22 bb be 1a d2 cd bd
       -0.07752781 0.09506921 -0.3654999 -0.10049839
0002a0 1c d1 d2 3e f0 2d 03 bd 4f 09 a7 be d6 7c 54 3e
       0.41175163 -0.03202623 -0.3262429 0.20750746
0002b0 44 e6 b6 3e f3 9c ee 3e a7 01 7d 3f 6b 9f 91 3e
       0.35722554 0.46604118 0.98830646 0.2844194
0002c0 0b 46 a2 be 54 e4 8a be 1e 6b c2 bd 21 37 8e 3e
       -0.31694064 -0.27127326 -0.09493087 0.27776435
0002d0 84 3d ac bd 30 d0 00 be c4 1b e7 bd b2 53 13 3e
       -0.08410171 -0.12579417 -0.11284593 0.14387396
0002e0 55 9e ed 3e e9 45 3b be 2e 5c 92 be a5 95 93 3e
       0.4640986 -0.18288387 -0.28585953 0.28825107
0002f0 eb ac 4d 3d fd 5a 07 3f 36 cf 4c 3f 3d a0 38 3e
       0.050213736 0.5287321 0.8000368 0.18029876
000300 db b7 fc 3d c8 52 76 bd ba 24 13 3e 76 a5 6e be
       0.12339755 -0.06013754 0.14369479 -0.23305306
000310 c2 39 29 3e e3 e4 1d 3e 4b e1 ce 3d 19 a6 58 be
       0.16525939 0.15419345 0.10101565 -0.21157111
000320 ca 21 88 be 33 93 07 be 50 43 fd 3d 70 40 1f 3e
       -0.2658828 -0.13239746 0.123663545 0.15551925
000330 48 12 91 3d ef 33 c4 bd c3 75 56 3e 1f 16 98 be
       0.07083565 -0.09580218 0.2094336 -0.29704377
000340 7c 2a 9c 3d 10 da ac bc a1 66 de bd d1 66 7c be
       0.07625291 -0.021100074 -0.10859419 -0.24648596
000350 d8 fc 20 3e 54 35 b9 bc c0 ca 3b 3c f6 2c 20 be
       0.15721452 -0.022608437 0.011461914 -0.15642151
000360 7c c7 fe bd 4c 80 3f be 1a 68 5c be 62 4c aa bd
       -0.124403924 -0.18701285 -0.21524087 -0.0831535
000370 3c f1 f2 3d 55 c1 42 3e 52 cf 32 be 8d 86 bf 3d
       0.11862418 0.19019063 -0.17461899 0.093518354
000380 4c a5 56 be 2a ed 22 be 3c fd b8 bd 44 fb 77 3e
       -0.20961493 -0.15910783 -0.090326756 0.24216944
000390 c0 e8 ba 3d 28 24 96 3d 20 20 3b be 30 2b 98 bc
       0.09126425 0.07331115 -0.18273973 -0.01857528
0003a0 e8 16 05 bd ca dd 16 be 4e 23 75 be c2 96 5c be
       -0.03249255 -0.14733043 -0.23939249 -0.21541885
0003b0 e4 f7 99 bd 60 e1 0f be ba 5a 48 3e cc fe df 3d
       -0.075179845 -0.14050817 0.1956586 0.109372705
0003c0 e4 d3 16 bc f1 a2 74 3e 1a 35 89 3e 7a 8e 21 be
       -0.009205792 0.23890282 0.26798326 -0.15777007
0003d0 57 00 33 bd e5 4c eb 3c 28 39 47 be f7 2a 37 3e
       -0.043701496 0.02872319 -0.19455397 0.17887484
0003e0 85 45 ce bd 29 23 0e be 81 de 74 3e 40 a7 b4 bd
       -0.100718535 -0.138806 0.23913004 -0.08820963
0003f0 9e 6c 06 be 69 fd b0 3e 3a 98 b7 3e 72 33 fa bd
       -0.13127372 0.34568337 0.35858327 -0.12216844

linear2.bias f4 [32]
000000 28 3b d5 bc fa 55 3c bd d2 37 a2 3d ad 2f 08 3f
       -0.026029184 -0.04598043 0.07920803 0.5319775
000010 b5 d8 d2 3e 7f 4a 1f 3f 31 83 a4 3d ba 49 90 be
       0.4118096 0.62223047 0.08032835 -0.2818125
000020 70 81 eb 3c 9a b6 fd 3e 40 b7 ac 3d 38 76 15 3e
       0.028748244 0.49553376 0.0843339 0.14595878
000030 1f 9a 89 3d c0 d2 6c be 48 1f 81 3d 75 14 be 3d
       0.067188494 -0.2312727 0.063047945 0.092812456
000040 48 d0 7a bd b9 29 6a 3e 6c f2 38 be 7f c5 f5 3d
       -0.06123379 0.22867478 -0.18061227 0.1200056
000050 d4 50 c9 bd 42 12 f1 3e a0 e6 f7 bc 44 e8 8c 3e
       -0.0982987 0.47084242 -0.030261338 0.27520955
000060 02 fe 67 bf f0 39 22 be 90 76 92 3d 19 5f 1f be
       -0.9062196 -0.15842414 0.0715152 -0.1556362
000070 7f c8 9f 3e b9 46 e3 bd 03 34 59 3e 68 53 16 be
       0.31207654 -0.11097474 0.21211247 -0.14680254

linear3.weight f4 [1, 32]
000000 3c f7 20 3e 01 5b 10 3d ed d7 5d be 72 af 3e bf
       0.15719312 0.035243038 -0.216644 -0.7448646
000010 c4 58 43 3e 59 2a aa 3e 46 42 92 bd 4d cf 82 38
       0.1907683 0.33235434 -0.07141547 6.237496e-05
000020 6c a2 48 3d 87 72 5c 3e f9 f2 39 be 0a 4c 37 be
       0.048983023 0.21528064 -0.18159093 -0.179001
000030 47 f8 90 3d 13 8d f0 3a ca 17 d2 bd f9 d2 1d 3e
       0.07078605 0.001835259 -0.10258444 0.15412511
000040 cc 50 3b 3e 4b dd ab 3e f6 c5 10 be 1a b5 86 bc
       0.1829254 0.3356727 -0.14138016 -0.016443778
000050 88 a3 19 3d 50 6c d4 bd c3 fe 1b be 2c cf 7d 3e
       0.03750947 -0.103722215 -0.15233903 0.24786061
000060 33 18 3e bf c6 e4 9d bc 7e 2e e9 bd 3e 7d 18 3e
       -0.74255675 -0.019274127 -0.11385821 0.14891526
000070 2e e2 24 be 31 31 5a bd e8 2c 66 be ab 0e f7 bd
       -0.16101906 -0.05326957 -0.22478068 -0.120633446
