local_NN.pth (torch, 5473 bytes, 5 tensors)

linear1.weight f4 [16, 1]
0	0xbf338bf3	-0.7013542
1	0xbf1d875e	-0.6153468
2	0xbeae7d7e	-0.34080118
3	0x3d81b851	0.06333984
4	0xbedd4570	-0.4321704
5	0x3f0c826b	0.548865
6	0xbebcc582	-0.36869437
7	0x3f0dd501	0.55403143
8	0x3c518b72	0.012789594
9	0xbf00b3df	-0.5027446
10	0xbf455ae6	-0.77091825
11	0x3f6e3245	0.93045455
12	0x3e93d526	0.28873557
13	0xbd877813	-0.06614699
14	0xbd8562fb	-0.0651302
15	0x3f6bcc2d	0.9210842

linear1.bias f4 [16]
0	0x3edd5f71	0.4323688
1	0xbe057c5c	-0.1303572
2	0x3fb1c64f	1.3888644
3	0xbe5854f8	-0.21126163
4	0xbee7510d	-0.45179024
5	0x3f42cf34	0.76097417
6	0xbf361b54	-0.7113545
7	0xbf7dbb05	-0.99113494
8	0x3f630996	0.886865
9	0xbe7afd83	-0.2451077
10	0x3f86628e	1.0498827
11	0x3e21c9e9	0.15799679
12	0x3f8c1b26	1.0945785
13	0x3f9c7718	1.2223845
14	0x3f94a8c6	1.1614006
15	0xbf678c0f	-0.9044809

linear2.weight f4 [32, 16]
0	0xbc31b1b2	-0.0108455885
1	0x3e224a4c	0.15848655
2	0x3ec653a4	0.38735688
3	0xbd5eaf94	-0.054366663
4	0xbdde190c	-0.10844621
5	0xbe0e03ab	-0.13868587
6	0x3d9ba579	0.07599921
7	0xbb6e6a45	-0.003637926
8	0x3e946d65	0.2898971
9	0x3b418753	0.0029530122
10	0xbc8826d6	-0.01662008
11	0x3ddf6e87	0.10909753
12	0x3e4efcd6	0.20213637
13	0x3f027ade	0.5096873
14	0x3ee66426	0.44998282
15	0xbe819f3f	-0.25316808
16	0xbe3fc84b	-0.1872875
17	0x3e386202	0.18006137
18	0xbd0ad52c	-0.033894703
19	0x3ddf959f	0.1091721
20	0xbc05620a	-0.00814105
21	0xbcbbfbda	-0.02294724
22	0xbe14b0ec	-0.14520615
23	0xbd15e7e6	-0.03659811
24	0xbe3d61ac	-0.1849429
25	0x3e39503c	0.18097013
26	0xbe78fef3	-0.24316005
27	0x3e14ce92	0.14531925
28	0x3e1237be	0.14279076
29	0xbe5b0c21	-0.21391346
30	0xbe4c736e	-0.19965908
31	0xbe80d017	-0.2515876
32	0xbeed78e9	-0.4638131
33	0xbeaccafd	-0.33748618
34	0xbe8de068	-0.2771027
35	0xbcdd22c4	-0.026994117
36	0xbe2998fa	-0.16562262
37	0x3e2207b1	0.15823247
38	0xbe260ebc	-0.16216558
39	0x3e1f0849	0.15530504
40	0x3e8f4568	0.2798264
41	0xbeae888b	-0.3408855
42	0xbf054283	-0.52054614
43	0x3dea17e7	0.1143034
44	0x3eb88d82	0.36045462
45	0x3f0fe043	0.5620157
46	0x3f43a954	0.7643025
47	0x3e44ca4f	0.192178
48	0xbd8b3930	-0.06798017
49	0x3dca1701	0.09867669
50	0xbe648440	-0.22316074
51	0xbe8b1557	-0.27164719
52	0x3e847118	0.25867534
53	0x3e146213	0.14490537
54	0x3ee5b1b3	0.44862136
55	0xbec01768	-0.37517858
56	0x3ef082d8	0.46974826
57	0x3ded2c08	0.11580664
58	0xbe2d96ec	-0.16952103
59	0x3e7b6fb3	0.24554329
60	0x3f07118a	0.5276114
61	0x3f72d811	0.9486094
62	0x3f46126e	0.7737187
63	0xbeb1ebd5	-0.34750238
64	0xbdbf670f	-0.09345829
65	0x3d3ccace	0.046091847
66	0x3ed65b56	0.4186656
67	0xbd347e2a	-0.044065632
68	0xbda4890f	-0.08033954
69	0x3e4b0332	0.19825438
70	0xbb7a5298	-0.0038196202
71	0xbc9cca28	-0.019139364
72	0x3dc9315a	0.09823866
73	0xbe6f932e	-0.23395988
74	0xbe1a845b	-0.15089552
75	0xbd65d51b	-0.056111436
76	0x3d3484d9	0.044072006
77	0x3f15d98a	0.58535063
78	0x3f2ef0fe	0.68336475
79	0xbe9ff574	-0.31241953
80	0xbe191042	-0.14947608
81	0x3c033757	0.0080087995
82	0x3eebfbf7	0.4609067
83	0xbe3f521c	-0.18683666
84	0x3ea89afc	0.32930744
85	0xbc676c10	-0.014124885
86	0xbd190c19	-0.037365053
87	0xbf1cf9b8	-0.6131854
88	0x3f129d37	0.5727114
89	0xbddf7efb	-0.109128915
90	0x3e8a5570	0.2701831
91	0x3bba7ac5	0.005690905
92	0x3d9656f2	0.07340802
93	0x3e91b6e3	0.28459844
94	0x3e76ae93	0.24090032
95	0xbee2c98b	-0.4429439
96	0x3dd343ac	0.10315642
97	0x3e2878ca	0.16452327
98	0x3db91147	0.090364985
99	0xbe406826	-0.1878973
100	0x3dcaf343	0.0990968
101	0xbd863d0d	-0.06554613
102	0xbe0c3cd3	-0.13695078
103	0xbd8ee2d4	-0.06976858
104	0xbe21eafb	-0.15812294
105	0xbdb2e0b2	-0.087342635
106	0xbe912c94	-0.28354323
107	0xbd615330	-0.055010974
108	0xbe23e222	-0.16004232
109	0xbe91dbbf	-0.28487965
110	0xbda0c2d2	-0.07849659
111	0x3d825620	0.06364083
112	0x3ddcaac7	0.10774761
113	0xbe6a4533	-0.2287796
114	0x3e0f8a30	0.14017558
115	0xbe8037e2	-0.25042635
116	0xbb8ef54b	-0.0043627373
117	0x3df7f304	0.121068984
118	0xbe33d5c8	-0.1756202
119	0xbe9440cf	-0.28955695
120	0x3e094821	0.13406421
121	0x3e530bae	0.20609924
122	0xbd35be77	-0.044371095
123	0x3c8b070f	0.01697114
124	0xbe771142	-0.24127677
125	0xbd83a098	-0.06427115
126	0x3e0539d2	0.13010338
127	0x3e16638d	0.14686413
128	0xbe462bda	-0.19352666
129	0xbdd2b494	-0.10288349
130	0xbe7e7e64	-0.24852902
131	0x3ddfb698	0.10923499
132	0x3db16b28	0.086630166
133	0xbe1f5764	-0.1556068
134	0x3dd55fe8	0.10418683
135	0xbdd71c60	-0.10503459
136	0xbe3ce924	-0.18448311
137	0x3e3d21fe	0.18469998
138	0xbe2e2ec6	-0.1701003
139	0xbe41ddac	-0.18932217
140	0xbdd4c978	-0.103899896
141	0x3df2aa88	0.118489325
142	0xbd8d88c8	-0.069108546
143	0xbe5a3fb8	-0.2131337
144	0x3e461524	0.19344002
145	0x3da5df8c	0.08099279
146	0x3e81ce11	0.2535253
147	0xbe93b799	-0.2885101
148	0x3e1ca1ae	0.15296051
149	0x3e5b9f2a	0.21447435
150	0xbd61eb90	-0.05515629
151	0xbf13b817	-0.57702774
152	0x3ed57f56	0.41698712
153	0x3e68e9bd	0.22745414
154	0x3ea90c61	0.33017257
155	0xbdff2b49	-0.12459428
156	0x3c883408	0.016626373
157	0x3e035856	0.12826666
158	0x3efd2e7f	0.49449536
159	0xbf0c733c	-0.54863334
160	0x3e4355c2	0.19075683
161	0xbea97a63	-0.33101186
162	0xbd413464	-0.047169104
163	0xbe3b2f6f	-0.18279813
164	0xbd9defc4	-0.07711747
165	0x3dc27f05	0.09496883
166	0xbebb3aea	-0.36568385
167	0xbdcda9ce	-0.10042153
168	0x3ed2cc6f	0.41171595
169	0xbcfda756	-0.030963581
170	0xbea69734	-0.32537234
171	0x3e548025	0.20752008
172	0x3eb6e3aa	0.3572057
173	0x3eee828c	0.46583974
174	0x3f7ce20a	0.9878241
175	0x3e91aa4f	0.28450248
176	0xbea248d4	-0.31696188
177	0xbe8a28e1	-0.26984313
178	0xbdbeaee8	-0.093107045
179	0x3e8e3a3a	0.27778798
180	0xbda90fb5	-0.08254949
181	0xbe00ee9c	-0.12591022
182	0xbddbd074	-0.10733119
183	0x3e135eb3	0.14391594
184	0x3eed740b	0.46377596
185	0xbe388c5f	-0.18022297
186	0xbe927a92	-0.2860914
187	0x3e939444	0.28824055
188	0x3d4d1b65	0.050074954
189	0x3f072dcb	0.5280425
190	0x3f4c85d7	0.79891723
191	0x3e38ad6c	0.18034905
192	0x3dfd64d5	0.12372748
193	0xbd75f64e	-0.060049348
194	0x3e11af1b	0.14226954
195	0xbe70b05f	-0.2350478
196	0x3e29a6de	0.16567561
197	0x3e1a81d2	0.15088585
198	0x3dd02fa6	0.10165338
199	0xbe5ad561	-0.2137046
200	0xbe8d990f	-0.27655837
201	0xbe077cc1	-0.13231184
202	0x3dfdd28e	0.12393676
203	0x3e1bec03	0.1522675
204	0x3d872728	0.06599265
205	0xbde0e1c5	-0.10980562
206	0x3e4764fa	0.19472113
207	0xbe998671	-0.29985383
208	0x3d9c2a7c	0.07625291
209	0xbcacda10	-0.021100074
210	0xbdde66a1	-0.10859419
211	0xbe7c66d1	-0.24648596
212	0x3e20fcd8	0.15721452
213	0xbcb93553	-0.022608435
214	0x3c3bcac0	0.011461914
215	0xbe202cf6	-0.15642151
216	0xbdfec77c	-0.124403924
217	0xbe3f804c	-0.18701285
218	0xbe5c681a	-0.21524087
219	0xbdaa4c62	-0.0831535
220	0x3df2f13c	0.11862418
221	0x3e42c155	0.19019063
222	0xbe32cf52	-0.17461899
223	0x3dbf868a	0.09351833
224	0xbe56a54c	-0.20961493
225	0xbe22ed2a	-0.15910783
226	0xbdb8fd3c	-0.090326756
227	0x3e77fb44	0.24216944
228	0x3dbae8c0	0.09126425
229	0x3d962428	0.07331115
230	0xbe3b2020	-0.18273973
231	0xbc982b30	-0.01857528
232	0xbd0516e8	-0.03249255
233	0xbe16ddca	-0.14733043
234	0xbe75234e	-0.23939249
235	0xbe5c96c2	-0.21541885
236	0xbd99f7e4	-0.075179845
237	0xbe0fe160	-0.14050817
238	0x3e485aba	0.1956586
239	0x3ddffecc	0.109372705
240	0xbc195da7	-0.009360707
241	0x3e7442e8	0.23853648
242	0x3e886f36	0.26647347
243	0xbe209ba5	-0.15684374
244	0xbd329cda	-0.043606617
245	0x3cf17f77	0.029479725
246	0xbe46ea1c	-0.19425243
247	0x3e386f43	0.18011193
248	0xbdd24c87	-0.10268503
249	0xbe0e7835	-0.13913043
250	0x3e749e71	0.23888566
251	0xbdb2bf27	-0.08727866
252	0xbe05de54	-0.13073093
253	0x3eafb7f9	0.34320047
254	0x3eb654b0	0.35611486
255	0xbdf80a04	-0.12111285

linear2.bias f4 [32]
0	0xba844984	-0.001009271
1	0xbd3c55fa	-0.04598043
2	0x3da1d659	0.07902212
3	0x3f080dd9	0.5314613
4	0x3ece28d9	0.4026554
5	0x3f1f917a	0.62331355
6	0x3da48331	0.08032835
7	0xbe908e33	-0.2823349
8	0x3ceb8170	0.028748244
9	0x3efd9f5c	0.49535644
10	0x3dacb5bb	0.084331
11	0x3e153a70	0.14573073
12	0x3d7c8f4d	0.0616601
13	0xbe6cd2c0	-0.2312727
14	0x3d811f48	0.063047945
15	0x3dbd07e2	0.09230019
16	0xbd6c4b59	-0.057689045
17	0x3e62d634	0.22152025
18	0xbe38f26c	-0.18061227
19	0x3df52291	0.11969484
20	0xbdc950d4	-0.0982987
21	0x3ef0983b	0.46991143
22	0xbcf7e6a0	-0.030261338
23	0x3e8d35b4	0.27580035
24	0xbf681208	-0.90652514
25	0xbe2239f0	-0.15842414
26	0x3d90f7b0	0.07078493
27	0xbe1f5f19	-0.1556362
28	0x3e9fd957	0.31220505
29	0xbde346b9	-0.11097474
30	0x3e591809	0.21200575
31	0xbe165368	-0.14680254

linear3.weight f4 [1, 32]
0	0x3e3f41a6	0.18677387
1	0x3d105b00	0.035243034
2	0xbe5dbd39	-0.21654214
3	0xbf3e626e	-0.7436894
4	0x3e389ce3	0.18028598
5	0x3ea9cbce	0.33163303
6	0xbd924245	-0.07141546
7	0x3943be1a	0.00018667468
8	0x3d48a26c	0.048983023
9	0x3e5ca8ee	0.21548817
10	0xbe39e821	-0.18154956
11	0xbe371cee	-0.1788213
12	0x3d906069	0.07049639
13	0x3af08d27	0.0018352614
14	0xbdd217ca	-0.10258444
15	0x3e1cab85	0.15299805
16	0x3e358e72	0.1773012
17	0x3ea71444	0.3263265
18	0xbe10c5f6	-0.14138016
19	0xbc873f33	-0.016509628
20	0x3d19a388	0.03750947
21	0xbdd3f9d2	-0.10350384
22	0xbe1bfec3	-0.15233903
23	0x3e7e15aa	0.24812952
24	0xbf3e8842	-0.7442666
25	0xbc9de4b6	-0.019274097
26	0xbde861c8	-0.11346775
27	0x3e187d3e	0.14891526
28	0xbe24d94e	-0.1609852
29	0xbd5a312e	-0.053269558
30	0xbe6621e5	-0.22473867
31	0xbdf70eab	-0.120633446
