non_local_NN.pth (torch, 74323 bytes, 8 tensors)

linear1.weight f4 [64, 8]
00000000: c5e0 0fbf adb3 99be 1783 a43e 561e adbe
00000010: 407b fbbd 1b2c 893d cdd8 af3d 4eec d8be
00000020: 0392 00bf a3d8 b03d 6e94 743e fde6 9f3d
00000030: de58 cc3d b79e afbc 89e0 39be f029 5a3e
00000040: ec47 00be 5c28 2cbe 9678 9b3d 8fce 9b3e
00000050: e9a8 a43e 26c3 463e 6c64 993e b1a4 0bbd
00000060: f3e8 1fbe fb62 09bf 3d02 51be 903e 313e
00000070: 3ca6 9db9 fd4b 823c 26a0 723e b60c cdbc
00000080: ff7d a8bb 380f a73e f08b b13d d7f1 823e
00000090: 7d02 d63d 63ce b6be dc98 b43c facf 5e3e
000000a0: e057 253c f050 953d 46b0 133c b052 e33e
000000b0: 0043 043e 24d0 3abc a4b7 d7bd cbbd e8be
000000c0: 14a0 47bd a95d 853e f1e3 493e 9418 03be
000000d0: 1d99 02bd 0855 cfbe e3ba de3d 3f49 3ebe
000000e0: 615c e6bd 929a 0f3e c09e 8e3e 7038 bf3e
000000f0: 32b1 17be 1926 cbbb bc7b 5ebe 6455 7c3c
00000100: 8185 2abe 5a6e 2bbe a3ed 823e cb34 753e
00000110: a4dd 95be 7c12 973e ab71 983e 1910 373e
00000120: 71b0 70be c955 f5be f0f4 c9bc e6c9 d33d
00000130: faca ba3c ed10 3f3e 8823 81bd d1a3 f43d
00000140: 4990 e13d f4cd 0ebf c054 de3e 98bd 593b
00000150: 3c8c 293e ee09 5abe d377 99bd c25e a0be
00000160: 1bd4 043e 83c5 2d3e 5c8c cebd f7a3 a6bd
00000170: ff82 6dbd 890f 9a3e 85da 4cbb 63a9 873e
00000180: 05e2 a33e 9a97 9cbe ad63 e4bd 7fc2 923e
00000190: 9a72 3ebe 6525 6b3e 8d6c 093e b59f 3f3e
000001a0: 35c9 e9be 3c95 18be 13c7 953e 6e5e 08bd
000001b0: 5fd7 94be 1b28 ddbe 751d cbbe 6966 b33e
000001c0: a0bd 8c3e ee8c 78be 369e 543e e140 8fbe
000001d0: 2db3 2e3e 3694 2cbb 8c32 b53d 1c1e 473e
000001e0: 4ea6 d43e bb04 25bf ab62 c8be 2f8e a1be
000001f0: 3326 1e3d e760 df3b 9fa4 ee3a b7d5 cabd
00000200: 23b8 a3be 6554 1b3e 64c0 2f3c 353d f1bd
00000210: 02f3 41bd b37d 503e 81ae 043e 164e 69be
00000220: 6bf1 583e ac6a fdbc 0d5e 553e 715b 8d3e
00000230: 712d 333d cda9 a53d c2fd 9cbe e0ef 6bbd
00000240: 18a2 a23d 829f f1bd 0805 593d 2eeb 2fbe
00000250: 744c e53d 4431 16bf dd55 c03e f43c f33b
00000260: 1a57 0cbf 3c97 723e 68c9 e2bc f322 f5bd
00000270: 19af 003f 8b96 a1bd ceeb 383e 0374 bf3d
00000280: ea5f 53bc 9a6c 12bf 9900 20bd dabf fd3d
00000290: a8c5 80bd dce0 0ebe 13e0 fcbd bea6 e13d
000002a0: a8a6 58be 6475 06bd 8f72 fbbd 04ab 073d
000002b0: 5a27 3d3e 8761 c73d c373 b53e 2196 923e
000002c0: df11 b03c 1e39 d8be 2ba5 d23d aa52 8bbe
000002d0: fb5e b1bd d21c 40be 79b0 503e fcd4 633e
000002e0: 84ae ba3c fcf2 413d a2f9 a3be 1a25 efbe
000002f0: 4034 983e 1064 4cbe 4c36 1f3e 9201 b03e
00000300: c6c7 6d3e daee bebd 902e 633e f35e 0fbe
00000310: 0896 1d3e e5ed 87be e08c 563e 04dc 103e
00000320: 4b7d e2bd 3993 903e 2128 f6be 3a41 bb3c
00000330: 642f 213d dfe6 37be 325d 7c3e 2e62 a8bd
00000340: b311 ac3e 487d 113d 0da1 edbe 7862 0e3e
00000350: f688 f4bd c5b0 12bf 2279 363e cd60 d7bd
00000360: 5116 2abe ecf6 903d beec 003e 53fd 843e
00000370: 4117 5fbe 6f76 a13d 77af 993d 2015 e7b8
00000380: 5142 883d 2c73 603d 222f bc3c a7ca 913e
00000390: 6bd7 43be 417a 07bf f334 76be 9647 503e
000003a0: 9fd7 913e 10e4 553e b2fb 3f3e 8916 3d3d
000003b0: 9732 733e 4f6c 13be 8150 80be a13d a53e
000003c0: 2851 3cbe bbff 47be ee14 813e b3c2 dc3d
000003d0: bbab a23e 968d 573e 748e a23d 4639 973e
000003e0: 6f42 af3d 3f6f 723e de25 96bd e6d7 913d
000003f0: 2173 c83d 121d 53be d6b1 6f3e fb3b a1bd
-0.56202346 -0.30019894 0.32131264 -0.33812207 -0.122793674 0.066978656 0.08586273 -0.42367786
-0.50222796 0.0863507 0.23884746 0.078077294 0.099778876 -0.021437986 -0.1815206 0.2130506
-0.12527436 -0.16812271 0.07591359 0.3043103 0.32160118 0.1941038 0.29959428 -0.03409261
-0.15616207 -0.5366666 -0.2041101 0.17309022 -0.00030069228 0.015905375 0.23693904 -0.025030475
-0.005141973 0.32628798 0.08669269 0.25575134 0.10449693 -0.35704336 0.022045545 0.21759024
0.010091752 0.07290828 0.009014195 0.44399023 0.12916183 -0.011402164 -0.105330735 -0.454573
-0.048736647 0.2604802 0.19715859 -0.12802345 -0.0318843 -0.4049456 0.108754896 -0.18582629
-0.11248089 0.14023808 0.27855492 0.37347746 -0.14813688 -0.00619961 -0.21726888 0.015401218
-0.1665249 -0.16741315 0.25571927 0.2394592 -0.2927066 0.2950629 0.29774222 0.17877235
-0.23504807 -0.4791701 -0.024652928 0.103412434 0.022801865 0.186588 -0.06305605 0.11945308
0.11013848 -0.5578301 0.43424034 0.003322458 0.16557401 -0.2129285 -0.07493558 -0.31322294
0.12971537 0.16969876 -0.10085365 -0.081367426 -0.057986256 0.30089977 -0.0031258177 0.2649642
0.32008377 -0.30584413 -0.11151824 0.28664014 -0.18598405 0.22963484 0.13420315 0.18713267
-0.4566132 -0.14900678 0.29253444 -0.03329318 -0.29070565 -0.4319466 -0.3967091 0.3503907
0.27488422 -0.2427251 0.20763478 -0.27979186 0.17060538 -0.0026333458 0.08847532 0.1944508
0.4153313 -0.64460343 -0.39137778 -0.3155379 0.03861065 0.0068169716 0.001820702 -0.09904044
-0.31976423 0.15168913 0.010727022 -0.117792524 -0.04735089 0.2036045 0.12957193 -0.22783694
0.21185844 -0.030934654 0.20836659 0.27608827 0.04374451 0.080890276 -0.30662352 -0.05760181
0.07941073 -0.11798002 0.052983314 -0.17179558 0.11196223 -0.58668923 0.37565508 0.0074230377
-0.54820406 0.23690504 -0.027683929 -0.11969557 0.5026718 -0.07890042 0.18058702 0.09348299
-0.012901286 -0.5719696 -0.03906307 0.123901084 -0.062877 -0.13952965 -0.12347426 0.11018132
-0.21157324 -0.032826796 -0.1227771 0.033122078 0.18472043 0.09735399 0.35439882 0.28630164
0.021492897 -0.42231077 0.102854095 -0.27211505 -0.08660694 -0.18760994 0.20379819 0.22249216
0.022788294 0.04735087 -0.32026392 -0.46707994 0.29727364 -0.19960046 0.15548056 0.34376198
0.23220739 -0.09322901 0.22185731 -0.14001064 0.15389264 -0.26548687 0.20952177 0.1414643
-0.11059054 0.28237322 -0.4807749 0.02285825 0.039351836 -0.17959164 0.24644926 -0.08221851
0.33607253 0.035519868 -0.46411934 0.1390475 -0.11940186 -0.5730098 0.17819646 -0.1051651
-0.16610076 0.070783466 0.1259031 0.2597452 -0.21786214 0.078839175 0.075041704 -0.00011018873
0.06653274 0.054797336 0.022971693 0.28474924 -0.19125144 -0.5292092 -0.24043636 0.20339808
0.28484818 0.2088778 0.18748358 0.04616407 0.23749767 -0.14396785 -0.2506142 0.32273582
-0.18390334 -0.19531147 0.2521128 0.107793234 0.31771645 0.21050104 0.07937327 0.29535884
0.08557593 0.2367525 -0.07331441 0.071212575 0.09787584 -0.20616558 0.23407683 -0.078727685

linear1.bias f4 [64]
00000000: ec95 323e ee6b 2cbe 3b6c 803e b52f 4f3e
00000010: 7843 463d 838e c43e 8282 a53e 5ee5 5c3c
00000020: 5160 993d ed74 b13c d4f9 82be 12c3 6abe
00000030: 1d49 d0bd 4d94 3f3e e132 a63e f8fb 283d
00000040: d380 9cbd 0c29 2e3e 24d5 ab3e 14be c9bd
00000050: 586d 9b3d 73ae 72bd 9526 ac3d 50dc b4bd
00000060: 922f 8e3d d70d 9d3e 1b75 c53d aa35 3f3e
00000070: b4cb 873e 7ae4 88bd b082 883e 8bd3 f6bd
00000080: b905 683e 76d8 343e 6f04 123d 9db2 853d
00000090: f687 bfbd b932 3b3e dfad 37be 8f9a 55be
000000a0: c72f bdbe eaa9 82be cd06 bebd 2f32 d0bd
000000b0: 687b f93d cb29 83bd 6ce9 c4be e630 9f3e
000000c0: d677 14bd 32cc 643e 21aa 773e 8c3f 423e
000000d0: ef97 ed3e 433e 8bbe 674f 6ebe c896 823c
000000e0: 9079 d33e d63e 893e f3f5 2fbe 358f 95be
000000f0: ed2f 6abe cace 8f3b 053f 903e ef8b fbbd
0.17440003 -0.16838047 0.25082573 0.20233043 0.048404187 0.38389978 0.32326132 0.01348242
0.07489074 0.0216622 -0.2558123 -0.22925976 -0.10170195 0.18708916 0.32460693 0.04125592
-0.07641759 0.17007846 0.3356105 -0.09850708 0.07589215 -0.0592484 0.084057964 -0.08831084
0.06942667 0.3067462 0.09641477 0.18672815 0.265226 -0.066842034 0.26662207 -0.12052067
0.22658433 0.17660698 0.03564876 0.065282084 -0.09352104 0.18281068 -0.1793742 -0.2085974
-0.36950514 -0.2552026 -0.09278641 -0.10165822 0.12181741 -0.06404456 -0.38459337 0.31091994
-0.036247097 0.2234352 0.24185993 0.18969554 0.4640498 -0.2719594 -0.23272477 0.015941039
0.41303682 0.26805753 -0.17183666 -0.2921082 -0.22869845 0.004388665 0.2817308 -0.122825496

linear2.weight f4 [128, 64]
00000000: 2606 8abe 0138 803c 8efe b63d 49e1 523d
00000010: abc4 36bc 7e5c 813e a67a 453e 2144 ca3d
00000020: b017 c4bd 19a9 1c3d 2290 443e 91b6 35be
00000030: 4991 993d 9469 4e3e 0a13 04bd 323b 743e
00000040: 7970 6fbd 870b a53d 21f6 8c3e 46a1 f9bd
00000050: 35ea d13d 9c0d c2bd 176e 6a3e e2b2 4fbe
00000060: 3200 cdbc db6d 2c3d 4c1d 4e3e e5f0 b23d
00000070: ff3e 533e 3850 7cbd ac5e 31bd f813 4e3e
00000080: 7d2d 093e cfa3 8a3d dcfd af3c 1746 143d
00000090: c50b 803e c9e5 893d ecd7 0bbe c06c 703e
000000a0: bc0f db3d b2be 033e 31cd 5cbb 1323 c2bd
000000b0: 0aca e73c f727 bebc 6b9b b63d 98d6 b5bd
000000c0: ebce 2dbc 5a2d 353e 394f 823d 454e 093e
000000d0: 4c86 153e ce04 1f3c 92dc 1e3d b3d8 4ebe
000000e0: 9aad 5c3e 7f26 01be ba79 c8bd 0db6 8abe
000000f0: 2104 64be 791c 613d af88 07be 5ef3 a2bd
00000100: 7364 4bbd e281 c53c ffd8 213e 2c9a 31be
00000110: a6c3 bcbd 6ece bc3d c330 ea3d fc16 0e3d
00000120: ffd5 a73d d315 b93d e4c1 333e a71f f33d
00000130: 81c5 4a3d d68a 66be b43f 63bc 46c1 9bbe
00000140: 5336 793d 0617 203e 38c4 c83c d289 153c
00000150: 3a84 c9bd 93cd d0ba 003f 22be 59c8 30bd
00000160: b981 8abd 1b5c 6fbe 1018 23be f081 f1bc
00000170: 552d 0bbe e8e6 b43d 1afe d03d fc2e b23d
00000180: 4bc9 be39 fd44 11be df33 a4bd 9020 533d
00000190: 5957 a9bd 306b 50bd 47a4 093c 77e7 96bd
000001a0: 5f39 363c f8db d5bd 90ff d7bd da35 edbd
000001b0: 88b7 153d 2cde 43bd f98f 9b3d 1d1f 243e
000001c0: 3c11 73bd b474 80bc ad17 82bd 0144 c0be
000001d0: 98a0 b3bd 8d5a 7dbc 231d 4c3d aa68 d8bd
000001e0: da59 88be f6d5 15be a6d5 76bd 3c44 3ebd
000001f0: dfd7 e4bd ea38 103d 780a ea38 8023 3e3e
00000200: 0c04 4ebe 4d42 adbd 3a15 c63d f271 ab3c
00000210: b018 bd3b 6354 7fbc a3cb ad3d 3af4 38bd
00000220: b10c 3f3d baf7 1f3e 7355 c4bd 09ee e53d
00000230: 2269 71bd e975 9cbd e0cc 88bd 1629 87bc
00000240: 379f 963d 77cf 013c 7053 87bd 0c22 5dbe
00000250: 4d5a 813d 13d1 413d 583d 553d 7276 23be
00000260: 3ed0 a33d ac72 a8be 4fb9 51be 1944 143d
00000270: ed9f 2abe 89d5 413c 6a9c 8cbd e954 8fbc
00000280: ee90 033d 7812 a03d 5467 73bd c181 353d
00000290: f760 d8bc 4d5f 633d 265d aabc 0da2 0c3c
000002a0: fb46 be3c 9f57 cb3c 9d22 353d aa4e 69be
000002b0: 5034 d63d f1c8 cd3d 0e6b 3ebe 1ce8 8abd
000002c0: dda0 e5bd b065 fd3d c9ef 9cbe cb04 dfbe
000002d0: 4b40 82be 5803 233d c32d f3bd e8b3 de3d
000002e0: d339 7bbe 62e0 b0be d706 2fbe adac 8cbc
000002f0: bebc d03d 6066 6d3d b99f f73d 7990 083c
00000300: eb5e 6ebe efaf ec3c d2be 953d ff0a eb3c
00000310: 5be2 8d3d be40 d2bc 1016 40bd 6751 af3d
00000320: 7ad5 1a3e f5e1 b93d 2d81 bebd 3bdf a4bd
00000330: 8a56 c73d 9fb5 293d ec4a 42bd dd4f 5b3e
00000340: 295c 0bbe 7b4c d33d dabe 363c bafe 8fbe
00000350: 71b6 85bd 2b5a a53d 10ae d3bd d576 71be
00000360: f7b0 b3bd 8d0d 283e df0c a6bb fc5e e83d
00000370: 8125 cbbd 51f7 e4bd 26e1 ef3d ff20 563d
00000380: 2a71 cb3d 7979 5e3e 9815 193e 79e9 9bbb
00000390: e679 473e a500 843d ca82 9739 c9c5 4dbd
000003a0: bb5e 14bd b87f 8ebd 8cb6 093e acae 7dbe
000003b0: c857 8cbd 7c73 2fbe 52f4 56bd cb04 2fbd
000003c0: 140b 99bd b7ea 953d 578f 82be 4389 0cbe
000003d0: 8513 e03e 457a 39be 502c 5cbe 3aac 8ebd
000003e0: 3ec3 533d 0a70 9bbd 3b76 6ebd 3139 86bd
000003f0: bc4c 7f3d 5f1a ec3c a1ab 80bd 0f27 ab3c
-0.26957816 0.015651705 0.08935271 0.05148438 -0.011155288 0.25265878 0.19285068 0.09876276
-0.095748305 0.0382472 0.19195607 -0.17745425 0.07498414 0.20157462 -0.03224472 0.23850706
-0.05845687 0.08058839 0.2753153 -0.121889636 0.102497496 -0.09475252 0.22893558 -0.20283082
-0.025024507 0.042096954 0.20128363 0.08737353 0.206295 -0.06159994 -0.043303177 0.20124805
0.13396259 0.06769525 0.021483354 0.036199655 0.2500898 0.06733281 -0.13656586 0.23478985
0.106963605 0.12865713 -0.003369164 -0.09479346 0.028294582 -0.023212416 0.089163624 -0.08878821
-0.010608415 0.17693081 0.06362767 0.13408764 0.14602011 0.009705735 0.03878457 -0.20199852
0.21550599 -0.12612341 -0.097888425 -0.2709202 -0.222672 0.054958794 -0.13235734 -0.07956575
-0.049656343 0.024109785 0.15805434 -0.17343968 -0.092170045 0.09219061 0.11435082 0.03468989
0.081951134 0.09037366 0.17554432 0.118712716 0.04950476 -0.22513899 -0.0138701685 -0.30420893
0.060842823 0.15633783 0.024507627 0.009127097 -0.09839673 -0.0015930407 -0.15844345 -0.043159816
-0.06763024 -0.23374979 -0.15927148 -0.029480904 -0.13591512 0.08833104 0.10204716 0.08700368
0.000363896 -0.14186473 -0.08017706 0.051544726 -0.08268613 -0.050883472 0.008400983 -0.07368367
0.011122077 -0.10442346 -0.105467916 -0.11582537 0.036551982 -0.0478193 0.0759582 0.16027494
-0.059342608 -0.015680648 -0.06352172 -0.37551883 -0.08770865 -0.0154634835 0.049832474 -0.10566838
-0.2663105 -0.14632401 -0.060262345 -0.046451792 -0.11173987 0.035210527 0.000111599395 0.1856823
-0.20118731 -0.084599115 0.096720174 0.020928357 0.0057707652 -0.015584084 0.08486106 -0.045154788
0.046642963 0.15621844 -0.09586611 0.11227042 -0.058938153 -0.07639677 -0.06679702 -0.016499083
0.073545866 0.007922999 -0.06607711 -0.21595019 0.06316052 0.04731853 0.052060455 -0.15963152
0.079987034 -0.32899988 -0.20480846 0.036197755 -0.1666257 0.011830696 -0.06865771 -0.017496543
0.032120638 0.07816023 -0.059424713 0.044313196 -0.026413424 0.055510808 -0.02079637 0.008583558
0.023227206 0.024822054 0.044222463 -0.22783914 0.104591966 0.10048092 -0.18595526 -0.067825526
-0.11212323 0.12372911 -0.30651692 -0.43558344 -0.25439677 0.03979811 -0.11873963 0.10874158
-0.24533777 -0.3454619 -0.17092453 -0.017172182 0.1019225 0.05795896 0.120910116 0.008335226
-0.23278396 0.028892485 0.07311787 0.028691767 0.069279395 -0.025665637 -0.04689604 0.08560448
0.15120497 0.09076301 -0.09301982 -0.0805039 0.09733303 0.041432973 -0.047434732 0.21417184
-0.13609375 0.10317322 0.011153901 -0.28124028 -0.065289386 0.08073839 -0.10335934 -0.23580487
-0.08773988 0.16411419 -0.0050674523 0.11346242 -0.09919263 -0.11179984 0.117128655 0.05227756
0.09933694 0.21726026 0.14949644 -0.0047580567 0.19480094 0.064454354 0.0002889841 -0.05023745
-0.036223155 -0.06957954 0.13448542 -0.24773663 -0.068526804 -0.17133898 -0.052479096 -0.04272918
-0.07472816 0.07320159 -0.25499985 -0.13724236 0.43764892 -0.18113048 -0.21501279 -0.06966443
0.05169987 -0.07589729 -0.058218222 -0.06553877 0.06232904 0.028821168 -0.062827356 0.020892648

linear2.bias f4 [128]
00000000: 5ebb 0e3d 777a 56bc 5e99 4ebc 1de7 fbbc
00000010: f411 c4bd e453 d93d 40fc e63d 9dbf 523c
00000020: 493a 1dbd ee74 6bba 768c a23d 4fa4 0cbc
00000030: dd6d 873d f9dc 71bd 297a b23d e60c 52bd
00000040: 6d71 a83d b44c 433d 1d50 eb3d abc3 bb3d
00000050: 032a 8cbc 899b 6ebd 2bf0 ba3d d9f0 f53d
00000060: 2e21 0b3e 0414 a3bd 1d54 a4bc e875 6fba
00000070: 6164 b93d 71bf b13d 08e1 febc 9d07 3b3d
00000080: 07c3 7bbd 6a2b 11bd b34f 8dbd 1f70 73bd
00000090: 725d 9d3d e1bf 033e 1d65 9f3d 1bfc fe3d
000000a0: 0de0 9cbd 77c3 033e e7a6 9fbc 566e a03c
000000b0: dce2 b5bd d01a 843d f7c7 663d 2f46 3a3d
000000c0: 834a 01be 1c27 213e 6cf0 1f3e cb8a 1abe
000000d0: 5ca5 743d 3ff1 aa3c 8e17 51bd 8198 84bd
000000e0: ba3d e33d 19fa cc3d bdf2 e5bd 351d a43d
000000f0: eb99 0fbd 078c 4f3d 6255 ce3d 202c 3f3d
00000100: 0a7a 0ebd 88da 65bc 2e3c 88bd 5ebd 333d
00000110: ad2b 163e 65de 0f3e c945 cd3d 05d8 95bd
00000120: feba fdbd 10f4 b93d aae2 0ebe 3ccd 193e
00000130: a79c 9e3d 611f 653c d26c 0f3d ba36 043e
00000140: 1590 b03d 3c02 0a3d c4c3 a23d 0513 09be
00000150: 90cf 7d3c 802b 193e c13c 0e3d 06fb 8bbd
00000160: e337 fd3d d804 17bd 04bc 20be 133f 5b3c
00000170: 183e ccbc 4e25 a8bd 340b a93d df20 f5bd
00000180: 405b 4e3d b81d ed3c cf5c 94bd fb83 863d
00000190: 1799 14be 9417 643d 033f 43bd 0d50 923c
000001a0: 77f0 70bd 3a8c 13be 8258 fb3d bd27 2cbd
000001b0: fb5e b33d 738d 94bd 2e5b d8ba 903d 1b3e
000001c0: ae9c 773d 986c febd e887 0b3d 62f6 163e
000001d0: dbdb b8bd 13a8 31bc d603 16be b31e 4cbd
000001e0: fa9a a13d 57df c2bc 026e cabd ca9e b2bd
000001f0: d0f1 203d 563f 94bd 5f2b 24bd 0c67 a23d
0.034846656 -0.013090721 -0.012609808 -0.030749852 -0.09573737 0.10611704 0.112785816 0.012863067
-0.038385663 -0.00089819625 0.07936947 -0.008584096 0.06612752 -0.059048627 0.087147065 -0.051281832
0.08224759 0.04768057 0.1148989 0.0916818 -0.017109876 -0.0582538 0.0912784 0.12008829
0.13586876 -0.07962802 -0.02005964 -0.0009134696 0.09052349 0.08679093 -0.031113163 0.045661557
-0.06146529 -0.035441794 -0.06899967 -0.0594331 0.07683839 0.12866165 0.07782958 0.12450429
-0.07659922 0.12867533 -0.019488765 0.019583862 -0.088811606 0.064504266 0.056343045 0.04547709
-0.1262608 0.15737575 0.15619057 -0.15092008 0.05972801 0.020866988 -0.051047854 -0.064744
0.11095758 0.1000864 -0.11227939 0.08013383 -0.035058897 0.05067065 0.10074879 0.04667294
-0.034784354 -0.014029153 -0.06652103 0.043881766 0.14665098 0.1404968 0.10023076 -0.07316593
-0.123891816 0.09079754 -0.13953653 0.15019697 0.07744723 0.013984532 0.03501589 0.12911502
0.086212315 0.033693537 0.079474956 -0.13386162 0.015491381 0.14958 0.03472591 -0.06834988
0.12364175 -0.036869854 -0.15696722 0.013381737 -0.024931952 -0.0821024 0.0825409 -0.1196916
0.05037999 0.028944835 -0.07244264 0.06568142 -0.14511524 0.05568655 -0.047667515 0.017860437
-0.058823075 -0.14408961 0.12272741 -0.042030085 0.087583505 -0.07253542 -0.0016506666 0.15160203
0.060452156 -0.12423056 0.034065157 0.14742425 -0.09026309 -0.010843295 -0.14649901 -0.049833965
0.078908876 -0.023788137 -0.098842636 -0.08721693 0.03929311 -0.07238643 -0.040080424 0.07929811

linear3.weight f4 [64, 128]
00000000: 3a13 84bc 9084 a2bd 028d 53bd dd60 88bc
00000010: 1851 613c 3191 75bd e041 1ebc 38f0 183d
00000020: a81e 92bc 25f8 bfbc dab8 30bc 1787 32bd
00000030: a1ed ec3c b389 5abd 628f eebd 3c87 a5bd
00000040: 78c8 71bd 2111 88bb 3999 b53b cf1f 35bc
00000050: c83d 923c 4e80 9cbd d897 2b3d 45cf 6a3d
00000060: e67f b43c 3436 0cbd 4804 803c 4cde 77bd
00000070: 2803 a9bb e6b6 78bd 198f b6bd f7f8 dcbd
00000080: d8e3 a43c 6edc 61bd c88b 46bd f8e0 dbbd
00000090: 7731 a2bd b610 f13c 2850 e0bd bfab 10bd
000000a0: 600a ac3c 8b7c cdbd 14f4 a8bd 57d1 72bd
000000b0: f5f8 c0bc fd94 963d 15b1 dbbc f277 0abd
000000c0: e60e 72bd 0031 0dbc 81a5 17bb 5ae3 16bd
000000d0: 1d71 283d cefd 713d 3509 83bb d483 433d
000000e0: 2910 95bd ba68 a8bd 718c 32bd 71e9 b5bd
000000f0: e5b5 bc3c 1e41 25bd bff9 af3d 9fe2 303b
00000100: ce77 333d a40c 323c dc44 ec3c a416 77bc
00000110: c744 d4bd bb62 29bb 222f 7fbd 1223 4abd
00000120: 60cd c73b 3295 f3bc f7c4 5b3d 4eec a8bd
00000130: 1abf 9dbd 0c9f 3fbc 4373 00bd 5073 15bd
00000140: 6a10 46bd ba22 82bc bc47 adbb e9ab 4d3d
00000150: 8579 853d 7145 103c 5f7d 11bd a38e e8bc
00000160: d987 b0bd 37a1 c5bd 14ef b0bd 639c 7a3d
00000170: 3a08 8abd 8d99 04bd 3bd8 90bd 8287 8a3c
00000180: 05f3 80bc 9e27 403d dfcd b3bd cf4c 07bc
00000190: 2515 48bd 4564 a6bd 0813 7e3d 3d30 26bd
000001a0: e6d1 d3bd ce25 053d ea41 c3bd 2fe6 8cbd
000001b0: 7fab 9abc 10bd c4bd aed5 5dbd 2ab9 3abc
000001c0: 65ac e83a 2eae 9d3c 9cb4 19bd d715 ac3b
000001d0: 7b42 a03d d339 5cbb a142 d5bd 5349 853d
000001e0: cbf5 16bd b68f e0bc 61cf 94bd 73f5 2a3d
000001f0: 0cf8 403d da4c 9bbd 55db 043d 88ff 6fbc
00000200: 9409 30bd 6ca4 02bd adbc 6cbd a5ce 72bc
00000210: d6ef 5dbc 744a 50bd 3ec9 c63c ab5c 37bd
00000220: 4081 31bd 812f 1d3d 1825 3cbd 1f40 37bd
00000230: e902 913d 8f59 9bbd 9d7e aebd 28cf 3a3d
00000240: 126d 6dbd b929 87bd d5dc 59bb 35a2 5dbd
00000250: ac44 a9bd db82 e5bd 0e44 83bc 5d1d 5f3d
00000260: 667c 2d3c 7cdf 0b3d 2066 2abd fd29 30bb
00000270: 1794 88bd 8d29 dabc 9af1 cb3c c77b 1dbd
00000280: 0c51 2bbd 9e8b 763d 276d bbbc cab2 4fbd
00000290: 35ae 48bd ad22 a23c 588a efbc efe4 e1bd
000002a0: 285c 353d 9a25 733d 4fbf 3d3d 9165 94bd
000002b0: 7490 183d 3dd4 1abd 1983 2dbd 601e 213d
000002c0: a1bf 813d 8ece 1cbc 27a0 503c 4b02 ddbc
000002d0: e2b1 81bd 26f9 1dbd c0f5 86bc a4a0 4e3d
000002e0: 9b1d c3bd 70a9 023d 4842 bbbd 0b0c 953a
000002f0: 3ce5 57bd 66a9 f43c 3236 d73a ce3c 9cba
00000300: 9ea0 36bc 8de2 833d c5c7 843d f310 563c
00000310: 707d d7bd 973c 05bc 10f6 b43b 1968 81bd
00000320: 70ae 83bb 0e4d 51bd 8259 83bb e086 d6bc
00000330: 3035 78bd 835f 5dbd 273e 0cbd 225b 163d
00000340: 8b24 cf3c d7ca 0c3d 54fe 3c3d 2f06 6cbd
00000350: 8326 033d 648e 7dbc 7848 883c 5f65 0c3d
00000360: 6a51 c5bd 63c5 6fbc 072a b03c 3ffe 7a3d
00000370: b0c1 82bd a60d 3f3d 1c83 d13c 208a 0b3c
00000380: 7374 0d3c 6392 7c3d 01bc 883d 648c 063d
00000390: f4ce 573d 1b95 523d ca48 ab3c 323f 32bd
000003a0: b668 40bd 8013 d13a 31ca debd 00f2 8dbd
000003b0: 04cf 9fbd ee47 fd3c c8d0 7c3c 3809 cebd
000003c0: 27c0 4ebc 15a4 903c c142 103a 5489 c7bd
000003d0: 07ff a3bd 872b c5bd fa2b c4bd d8f7 09bd
000003e0: 4b59 e6bd 68d5 a43c 6012 f2bb f4fb 703b
000003f0: ee8a 3abb 88c5 9bbb 293e 56bd c04a 19bd
-0.01612245 -0.079354405 -0.051648147 -0.01664775 0.013752244 -0.05995292 -0.0096592605 0.037338465
-0.017836884 -0.023433754 -0.01078626 -0.043585863 0.028921904 -0.053353976 -0.11648442 -0.080824345
-0.059029073 -0.0041524325 0.005541947 -0.011054947 0.017851725 -0.0764166 0.041892856 0.057326574
0.022033643 -0.03423138 0.015627041 -0.060514733 -0.005157847 -0.0607213 -0.089140125 -0.10789674
0.020128176 -0.05514186 -0.04847315 -0.10736269 -0.07919591 0.029426914 -0.109527886 -0.03532004
0.021001041 -0.1003352 -0.08249679 -0.059281673 -0.023556212 0.07352636 -0.026817838 -0.033805795
-0.05909624 -0.00861764 -0.002313942 -0.036837913 0.0411235 0.059079938 -0.0039989003 0.047733143
-0.07278473 -0.082231 -0.043590967 -0.08882416 0.023035953 -0.040345304 0.08592557 0.0026990545
0.043815427 0.010867272 0.028841428 -0.015081082 -0.10364681 -0.0025846201 -0.06230081 -0.049349852
0.0060974807 -0.029734228 0.053654637 -0.082481965 -0.07702465 -0.011695635 -0.031359922 -0.036486924
-0.048355497 -0.0158857 -0.0052880924 0.050212774 0.06517319 0.008805619 -0.035519954 -0.028388327
-0.08619661 -0.0964989 -0.086393505 0.0611843 -0.0673985 -0.032373 -0.07072493 0.016910318
-0.01574088 0.046912782 -0.08779501 -0.008258059 -0.04884829 -0.08124594 0.06202987 -0.040573347
-0.10342769 0.032506756 -0.095340565 -0.068798415 -0.018880604 -0.09606373 -0.05415886 -0.011396686
0.0017751573 0.019248094 -0.03752576 0.005251627 0.0782518 -0.0033603802 -0.10413099 0.06508126
-0.0368555 -0.027412277 -0.07266117 0.041737985 0.047111556 -0.07583018 0.032435734 -0.014648326
-0.042977884 -0.031895086 -0.057797123 -0.014819776 -0.013545951 -0.050852254 0.024265882 -0.04476611
-0.043336153 0.03837538 -0.045933813 -0.044738885 0.07080633 -0.07585441 -0.08520243 0.045607716
-0.057965346 -0.06599755 -0.0033243198 -0.05410977 -0.08265051 -0.11206599 -0.016023662 0.054471362
0.010588741 0.03414868 -0.0416013 -0.0026880496 -0.06668871 -0.026631141 0.024895478 -0.03844812
-0.04182534 0.060191743 -0.022879196 -0.050707616 -0.04899426 0.019791925 -0.029240772 -0.11029994
0.04427734 0.05936203 0.046325024 -0.07245935 0.037247136 -0.037800062 -0.042361353 0.03933561
0.063353784 -0.009570731 0.012733496 -0.026978632 -0.063327566 -0.038567685 -0.016474605 0.050446168
-0.09527131 0.03189987 -0.091435015 0.0011371387 -0.05270885 0.029865932 0.001641935 -0.0011919977
-0.011146693 0.064396955 0.064834155 0.013065564 -0.10521972 -0.0081321215 0.005522497 -0.06318683
-0.0040185973 -0.051098876 -0.004008473 -0.02618736 -0.0605976 -0.054046165 -0.03423896 0.036708005
0.02528598 0.03437313 0.046140984 -0.057623085 0.03201915 -0.015475843 0.016636118 0.034276363
-0.09634669 -0.014634463 0.021504415 0.061277624 -0.06384599 0.046643876 0.025575213 0.008516818
0.008633721 0.061663043 0.06676484 0.03284873 0.0526876 0.05141173 0.020908732 -0.0435173
-0.04697486 0.0015951246 -0.10878409 -0.069309235 -0.07803157 0.030918088 0.015430637 -0.10060352
-0.012619055 0.017656365 0.0005503111 -0.0974299 -0.08007627 -0.09627443 -0.095787 -0.033683628
-0.112475 0.020121291 -0.0073874444 0.003677127 -0.0028464156 -0.004753772 -0.052305374 -0.037424803

linear3.bias f4 [64]
00000000: 6ee5 87bd 889a e93c d1fc 033e 240b 723d
00000010: ee07 d33c 600a 293d 45b5 833c 4845 f23d
00000020: c1e8 4fbc cb14 083d e4f0 ebbc af0c bd3d
00000030: a797 bf3d 9bdf 1bbd d8b1 b13d 5877 32bd
00000040: e45e a43d 1aee 80bd 76a5 883c bf63 deba
00000050: 14dd cf3d 24b3 203e d11c 8a3d 84a8 683d
00000060: c464 003c 04a6 de3b 09ef 69bd b1af df3c
00000070: a4d3 db3c 3e35 373d 9148 cf3d e8d8 3e3d
00000080: 81c1 37bc dcca a53d a9c0 173e a80e 6a3d
00000090: 44bb 933c 992b 1b3e 76c9 ce3d 8212 6e3d
000000a0: 46c1 133d 940d c33d db20 873d 3cce 36bd
000000b0: 0e19 8fbd 5560 04bc c8d4 243c 436e b53c
000000c0: 1752 fc3d 4b79 783d 879e 3bbd 6bbb a93d
000000d0: 476e 1c3e a174 ff3d 0d9b 353d 046f 653d
000000e0: 2c8f 893b a024 72bc 707f d6bc ce6f a2bc
000000f0: b383 063e dbe5 a13d cda1 283e 10fb ca3d
-0.06635557 0.028516069 0.1288941 0.059092656 0.025760617 0.04126966 0.016077647 0.118296206
-0.01268977 0.033222955 -0.028801389 0.09230935 0.09355097 -0.038055044 0.08676499 -0.043570846
0.080259115 -0.06295414 0.01668046 -0.0016966983 0.10149589 0.15693337 0.067437775 0.056801334
0.007836524 0.006794693 -0.057112727 0.027305456 0.026834317 0.04472851 0.10121263 0.046593577
-0.0112155685 0.08095333 0.14819588 0.057142884 0.018033631 0.1515335 0.100970194 0.05812312
0.03607299 0.09524074 0.065980636 -0.044630274 -0.06987201 -0.008079608 0.010060497 0.022147303
0.12320345 0.06066255 -0.04580548 0.082877 0.15276442 0.12473417 0.04433732 0.056014076
0.0041979756 -0.01477924 -0.026183814 -0.019828703 0.13136177 0.079051696 0.16467972 0.099111676

linear4.weight f4 [8, 64]
00000000: 8cae c53c a183 98bd e230 0d3b b353 a4bd
00000010: 633e 203e 8334 a4bd 6970 c8bd c100 7a3d
00000020: 0b18 15be 1fe0 08bb 4607 2f3e 3524 43be
00000030: eac1 df3b d43b 163c 5761 0d3e 3e6e ca3d
00000040: 54ae 49be 09f1 55bd d812 9a3c da3a d2bc
00000050: 502c f4bd 4bbf cd3c 4797 a53d 2881 acbd
00000060: b6d5 03bd 3b9e 8bbc c97b 3ebd 8eb6 883c
00000070: 9a1a 293c e4b0 073e c30a 1cbd fe00 6cbd
00000080: 1221 9e3c 1b0d 43bc dcb0 39be 7510 993d
00000090: ef72 aebd 8e62 c7bd 3946 e0bd 797c 1cbb
000000a0: 778c 95bd 85c6 63bd 9480 073d 37cf 163d
000000b0: 34e1 76bd cc92 2a3d c006 263e c3ef fe3c
000000c0: 2663 d8bd 7971 e7bb e75e 0ebe 20c0 70bb
000000d0: 495f 33be 3ec3 3cbd aca3 85bd 3156 773d
000000e0: c576 353c 84d3 1ebe 1af5 a8bd 0e14 293d
000000f0: 8cb7 3dbe ff8e be3d b188 abbd e02c 26be
00000100: 178b 643b ea98 a73d 0add afbc 24f6 813d
00000110: f3dc 563d ffab 0a3e ff4d aa3e 43e3 d1bd
00000120: 6c53 42bd 2610 78bd 26be 66bc 0622 48bd
00000130: 61a0 f5bc 8ed1 c63d 143d 0bbe 7b87 a43d
00000140: 6d6c cb3b e5f8 aabd ddaa 443d e0d5 e2bc
00000150: 5686 71bc 0697 f0bd ed56 8a3d 83ea 94bd
00000160: 1075 fdbd 762b 3ebd 10ae 963d ad6e c63b
00000170: 9ccf 4e3d 0e6c a8bd 14a6 e73a 0082 b8bd
00000180: 9f12 c13d 2f58 b03d 38cf d7bd 37dd cb3d
00000190: 5994 30bd 6294 913d 4ede b73d a3b3 7cbd
000001a0: 9cc3 3b3d 57e6 d1bd 7e39 cf3c f5d1 313d
000001b0: 6529 fe3c f404 8f3d 4ba8 b1bd 75c2 9e3c
000001c0: 1bfb eabd 6b09 3bbd 7b64 a1bd d17d c63d
000001d0: 3247 b3bd 589a cebd ba73 20be 88d6 d3bd
000001e0: c33f 8e3d 49a3 c1bc f5e7 083c 2c21 2dbd
000001f0: 752a 13be 9e0c 04be 3c6a 38be 169e 343e
00000200: 6b93 833d 2029 1e3d bc17 e83c d861 103d
00000210: 9402 e9b9 7840 b83d 456a fabd 195a 98bd
00000220: 5925 d43c f3c8 543d 3a6b 34bd efcb 1e3c
00000230: 6f9e b2bd fca6 4b3c 4b7d 15bd 497a 9cbc
00000240: 9d88 9bbd 4deb cd3d 2c50 9bbd ef5e a03c
00000250: 816b 0abe 7b58 b83d d359 58bd b3d7 0abd
00000260: 3848 01bc 2b68 07be a078 873d 249e 753d
00000270: ccf4 2f3d a386 09be 3b81 95bd 77f8 aabb
00000280: 1bf7 c53c f50c 283d e764 693e 24f4 8cbd
00000290: 6051 953d 9b8b 5f3d f497 2fbd c3bb 93bd
000002a0: 4f51 e03c e367 fdbc 59f2 07be 7642 b03d
000002b0: 4737 313d 0672 b1bd f2b5 24bd 17a7 c4bc
000002c0: 57d8 1abe 110a d93d 7480 b83d 34cd 38be
000002d0: 4df3 08be 1acb f63d 497e 0fbe dfda dabd
000002e0: f8b6 353d 33be 44be 72a4 33bd cad7 2fbd
000002f0: b027 ea3d e6fa edbd 2320 9b3c c283 8c3c
00000300: 9638 f5bd 4f7d a13c 607a 05be 1bc3 0dbe
00000310: d0f3 093e b54c e0bd 4265 8ebd bbb4 d7bd
00000320: b049 61bb e1fd f3bc f193 9f3d f91e 0fbd
00000330: 5967 bd3d b55a b7bd 5b62 ce3b ee3d 21be
00000340: d79f 953d 36fd bf3d c9b1 0abe b23a a53d
00000350: a5fb d9bc 5540 4a3d c802 dbbd dae8 a1bd
00000360: 12cd 693d 73e7 4a3e 24a6 d33d f450 13bb
00000370: 6b30 51be ef3f 15be 174c f5bc 0239 0ab9
00000380: 51fd 0cbc 5a96 08be 0dd2 6dbd 9d4e dbbd
00000390: d1be ebbd f035 ca3c 4ca9 003d 6394 80bd
000003a0: 3b9a 92bd fe67 38bd 8803 a63c 6a78 133d
000003b0: f851 81bb 70f8 4f3d 8fa2 f43d 02f1 5a3c
000003c0: 77c6 a3bd 7df6 2b3d fd23 4cbd f94e e83d
000003d0: d020 edbd 6191 22be 3e3b 063e 322a 0fbe
000003e0: 04be 0fbe acbf 0e3e da21 f93b 54bd 51bd
000003f0: a2be fb3d cd37 14bd 762a da3d d48e 473d
0.024131082 -0.07446981 0.002154403 -0.08023777 0.15648799 -0.08017828 -0.097870655 0.061035875
-0.14559953 -0.002088554 0.17092618 -0.1905678 0.0068285363 0.009169538 0.13806663 0.09884308
-0.19695407 -0.052231822 0.018807814 -0.025662828 -0.119225144 0.02511563 0.080854945 -0.08423072
-0.032186233 -0.017043224 -0.04650477 0.016688611 0.010321284 0.13251072 -0.0380962 -0.057618134
0.019302879 -0.01190498 -0.18133873 0.07473842 -0.085180156 -0.09735595 -0.10950894 -0.0023877902
-0.07302182 -0.055609245 0.033081606 0.03681871 -0.060273364 0.041643903 0.16213512 0.031120187
-0.10565786 -0.0070630875 -0.1390339 -0.003673561 -0.17516817 -0.046084635 -0.065253586 0.060384933
0.01107568 -0.15510374 -0.082498744 0.04127889 -0.18527049 0.09304618 -0.08375681 -0.16228056
0.0034872943 0.08183463 -0.021467704 0.06345776 0.052456807 0.13542174 0.3326263 -0.10248425
-0.04744284 -0.060562275 -0.014083421 -0.048860572 -0.029983701 0.09707938 -0.13597518 0.08033653
0.0062079937 -0.08348254 0.04801451 -0.027689874 -0.014741501 -0.117475554 0.06754861 -0.07271292
-0.123758435 -0.046428166 0.073574185 0.006055674 0.05049096 -0.08223735 0.0017673397 -0.090091705
0.0942738 0.0861057 -0.10537571 0.09954303 -0.043110225 0.0710838 0.08977948 -0.061694752
0.045840845 -0.10249012 0.02529597 0.04341312 0.031025598 0.069833666 -0.086746775 0.019379834
-0.11473676 -0.04566328 -0.07880493 0.09691966 -0.08753814 -0.100880325 -0.15669146 -0.10343653
0.06945755 -0.02363743 0.008356084 -0.042267963 -0.14371665 -0.12895438 -0.18009275 0.1763843
0.06424602 0.03861344 0.02833163 0.03524956 -0.00044443144 0.089966714 -0.122273006 -0.0743906
0.025896715 0.051949453 -0.04404757 0.009692176 -0.08721625 0.012429949 -0.03649644 -0.019101279
-0.07594416 0.10054646 -0.07583651 0.019576518 -0.13517572 0.09001251 -0.052820038 -0.033897113
-0.007890753 -0.1322333 0.06614804 0.059965268 0.042958066 -0.13430266 -0.073000394 -0.0052176076
0.02416568 0.04102798 0.22792397 -0.06882504 0.07290912 0.054576498 -0.042869523 -0.07213547
0.027382521 -0.030933326 -0.13276042 0.086064264 0.043265607 -0.08664326 -0.04021258 -0.024005456
-0.1512159 0.10597623 0.090088755 -0.18047029 -0.13374062 0.12050457 -0.14013018 -0.106862776
0.044363946 -0.1921318 -0.043858 -0.0429304 0.11433351 -0.11620121 0.018936222 0.01715267
-0.119736835 0.019713072 -0.13034964 -0.13843958 0.13471913 -0.10952131 -0.06952907 -0.105325185
-0.0034376197 -0.029784145 0.077918895 -0.034941647 0.092482276 -0.08952848 0.006298346 -0.1574628
0.07305878 0.09374468 -0.13544382 0.08067836 -0.026609251 0.049377758 -0.1069389 -0.07905741
0.057080336 0.19814853 0.10334423 -0.0022478672 -0.20428626 -0.1457517 -0.029943509 -0.00013181943
-0.008605317 -0.13338605 -0.05806165 -0.10708354 -0.11511005 0.024683923 0.031411454 -0.062783025
-0.071583234 -0.04502105 0.020265356 0.036003508 -0.003946539 0.050774038 0.11945068 0.013363125
-0.079968385 0.041983116 -0.04983901 0.11343188 -0.11578524 -0.1587577 0.13108537 -0.1398094
-0.14037329 0.13940305 0.0076029124 -0.051205948 0.1229222 -0.03618603 0.1065263 0.048720196

linear4.bias f4 [8]
00000000: 7818 6fbd 5264 bcbd afd3 06be f497 13be
00000010: 511d fcbd 857c 2fbe 619e 81bc 2406 23be
-0.058372945 -0.09198822 -0.13166688 -0.14413434 -0.12310279 -0.17137344 -0.015822591 -0.15920311
