non_local_NN.pth (torch, 74323 bytes, 8 tensors)

linear1.weight f4 [64, 8]
000000 84 a3 11 bf f2 a8 a1 be a6 89 a2 3e 6c 20 aa be
       -0.5689013 -0.31574208 0.31745642 -0.3322786
000010 b5 6e 01 be c1 0c 72 3d cf f6 d3 3d fa 13 dc be
       -0.12639888 0.059094194 0.103498094 -0.4298399
000020 e8 72 00 bf eb 6b a4 3d 9d 27 77 3e 29 66 b7 3d
       -0.50175333 0.08028396 0.24136205 0.089550324
000030 ee 6a c8 3d 6f 54 0b bd e9 a5 3a be 6c 69 60 3e
       0.0978602 -0.03401607 -0.18227352 0.21915215
000040 78 2e 03 be bf 66 2a be e2 07 a2 3d b2 bb 9f 3e
       -0.12810695 -0.16640757 0.0791166 0.31197888
000050 25 fe a4 3e f8 47 48 3e 6f d4 95 3e 42 5b 2d bd
       0.32225147 0.19558704 0.29263636 -0.04232336
000060 4a ea 3b be 43 17 08 bf d4 05 50 be c1 cd 2a 3e
       -0.18351093 -0.53160495 -0.20314723 0.16680051
000070 a3 b5 9a bb 21 8e b5 3c 5f ac 6e 3e e5 9a fd bc
       -0.00472136 0.022162499 0.23307942 -0.030957649
000080 e0 2d 97 37 67 ea a6 3e 41 95 b6 3d 40 1c 80 3e
       1.8021965e-05 0.3260071 0.08915187 0.25021553
000090 a5 ef f1 3d f1 3e b5 be e3 36 ca 3c 81 5c 69 3e
       0.11813287 -0.35399583 0.024684375 0.22789194
0000a0 ac 0a 0d 3c 55 a0 98 3d dd cd 54 3c 32 d1 e5 3e
       0.008608501 0.07452456 0.012988535 0.44886166
0000b0 01 87 f8 3d 54 9c 81 bc fa ed b7 bd c0 a4 e4 be
       0.12135125 -0.015821613 -0.08980937 -0.44656944
0000c0 ac 35 b6 bc 42 d4 6f 3e 55 04 3e 3e c6 38 c1 bd
       -0.02224239 0.23420814 0.1855634 -0.09434657
0000d0 f6 bf a3 3c ba 33 e0 be ad 09 bb 3d a8 4a 47 be
       0.019988995 -0.43789464 0.09132705 -0.19462073
0000e0 a0 26 e7 bd 97 f1 08 3e 26 71 8b 3e c0 d5 bf 3e
       -0.11286664 0.13373409 0.27234763 0.37467766
0000f0 7d fa 1c be 4c d2 5e bb e3 fc 63 be 89 b5 8e 3c
       -0.15329929 -0.0033999858 -0.22264437 0.017420547
000100 46 bf 22 be 8b 66 31 be 42 9c 80 3e f1 4b 78 3e
       -0.15893278 -0.17324273 0.25119215 0.2424772
000110 e4 c5 96 be 4c 22 99 3e 83 d3 97 3e 65 12 37 3e
       -0.29447854 0.2990898 0.29653558 0.1787811
000120 0e 14 68 be 6e 4f f6 be e6 b2 e2 bc c0 af d9 3d
       -0.226639 -0.48107475 -0.027673196 0.10629225
000130 43 25 ee 3c c4 33 3e 3e 23 db 6c bd 1c f8 03 3e
       0.029070502 0.18574435 -0.057826173 0.12887615
000140 4e d0 eb 3d 2b 10 0e bf cc af de 3e db 25 43 3c
       0.1151434 -0.5549342 0.43493497 0.011910881
000150 c8 c8 26 3e 4f 06 60 be ee 11 ab bd 42 f1 98 be
       0.1628753 -0.21877407 -0.08353029 -0.29871565
000160 e8 6a 05 3e 88 e8 26 3e 47 31 cf bd d3 8c af bd
       0.13029063 0.16299641 -0.10116821 -0.08571782
000170 b8 35 86 bd 16 52 9e 3e 68 5c 7c 3b e5 cc 87 3e
       -0.06553215 0.30922002 0.0038507227 0.2652351
000180 7e d8 a1 3e d0 d0 9e be db 2a e8 bd 9e 6d 91 3e
       0.31610483 -0.31018686 -0.11336299 0.28403944
000190 f9 60 41 be f6 8b 6f 3e 03 0a 0e 3e ec 15 3d 3e
       -0.18884648 0.23393235 0.13871007 0.18465394
0001a0 67 99 de be 9f 05 0f be 9e 18 99 3e 59 7a 39 bd
       -0.43476412 -0.13966988 0.29901594 -0.045282695
0001b0 08 4f 91 be ed 4b dc be 9f 19 ca be 6b a6 b9 3e
       -0.2838061 -0.43026677 -0.39472672 0.3625978
0001c0 6a 4c 8e 3e e0 3c 7b be 8b 33 51 3e 14 2b 8e be
       0.27792674 -0.2453494 0.20429818 -0.2776724
0001d0 ac af 31 3e ad 69 03 3b c3 b5 b3 3d e0 cf 42 3e
       0.1735217 0.0020052001 0.08774903 0.1902461
0001e0 0b bb d7 3e 97 c1 25 bf 4f 8f c8 be 2b c8 a0 be
       0.4213489 -0.6474852 -0.39171836 -0.31402716
0001f0 a7 a5 2f 3d 23 26 93 3b 0d fd 22 39 69 b7 b1 bd
       0.042882588 0.0044906302 0.00015543793 -0.08677561
000200 99 19 a5 be 9b fa 1a 3e 98 eb f4 3b 58 25 e0 bd
       -0.32246092 0.15134661 0.007474374 -0.10944623
000210 aa 49 58 bd 1b fa 50 3e 99 91 08 3e 12 b6 72 be
       -0.052804627 0.20407908 0.13336791 -0.23702267
000220 10 30 5c 3e b0 6e e0 bc b1 e5 50 3e 26 31 8e 3e
       0.2150271 -0.02739653 0.2040012 0.27771872
000230 18 08 3a 3d b8 9a a3 3d dd 7d 98 be 6f 1d 55 bd
       0.045417875 0.07988495 -0.29783526 -0.052030023
000240 5c 12 8c 3d e9 f6 da bd 7c a1 af 3d 87 79 2e be
       0.06839439 -0.106916256 0.085757226 -0.17038547
000250 c5 68 fb 3d ff fe 16 bf ac b4 be 3e 6a 1c d5 ba
       0.122758426 -0.58982843 0.37247217 -0.0016259078
000260 29 e2 0b bf 0c df 72 3e 4d 51 f7 bc 13 27 f6 bd
       -0.5464197 0.23717898 -0.030190134 -0.120191716
000270 5c 6c fd 3e ed b7 94 bd 66 65 38 3e 6f 1a bc 3d
       0.49496734 -0.072616436 0.1800743 0.09184729
000280 0c 30 84 bc cc 1a 13 bf 56 f0 ea bc 39 aa 02 3e
       -0.016136192 -0.57462764 -0.028679054 0.12760247
000290 23 13 73 bd 45 c0 06 be 4a a5 07 be 1f 61 e6 3d
       -0.059344422 -0.13159283 -0.13246647 0.11248993
0002a0 9e e9 61 be e5 00 c6 bc fc ec 00 be f5 e7 0c 3d
       -0.22061774 -0.024170348 -0.12590402 0.0344009
0002b0 6b dc 30 3e 80 16 dd 3d b7 e5 b4 3e f7 40 90 3e
       0.17271583 0.10795307 0.3533151 0.28174564
0002c0 bb 17 35 3c 1d 5c d5 be bc 04 e7 3d d0 c8 8e be
       0.011053021 -0.4167184 0.112802 -0.27887583
0002d0 3c ba 9f bd 2b 71 3d be 2d ba 4a 3e 8c 01 5d 3e
       -0.07799193 -0.18500201 0.19797583 0.21582621
0002e0 a4 1c e2 3c d5 f9 70 3d 94 a8 a4 be bc e4 f0 be
       0.027601548 0.05883201 -0.32159865 -0.4704951
0002f0 62 cb 9a 3e a3 63 42 be 98 d6 21 3e 7c 0e ac 3e
       0.30233294 -0.18983321 0.15804517 0.336048
000300 1f dd 75 3e da 23 a1 bd 15 9f 68 3e cd 03 0d be
       0.24010132 -0.07868166 0.22716935 -0.13770981
000310 78 96 28 3e 8c 45 7c be 3a 9f 57 3e 41 78 13 3e
       0.1646365 -0.24635905 0.21056834 0.14401342
000320 28 3f b7 bd 47 1a 8c 3e 1f 7a 03 bf c1 e0 b7 3d
       -0.08947593 0.27363798 -0.51358217 0.08978415
000330 46 0a 0e 3d 84 52 73 be aa f3 51 3e a5 ef a1 bd
       0.034677766 -0.23761946 0.20503107 -0.07907037
000340 89 8d a2 3e 13 fa 91 bc eb d2 e5 be 90 17 0e 3e
       0.31748608 -0.01781944 -0.4488748 0.13876176
000350 60 b4 e4 bd da cc 19 bf 45 ff 01 3e 2c 50 01 be
       -0.11167216 -0.60078204 0.12695034 -0.1262824
000360 44 63 39 be b8 34 89 3d 14 e7 fc 3d 9b f7 7a 3e
       -0.18104273 0.066995084 0.12348762 0.24508516
000370 e9 9d 7e be 25 79 ac 3d 5d 5d 87 3d a5 ac ec bc
       -0.24864925 0.08421544 0.066096045 -0.028890917
000380 24 25 7a 3d f5 fb 82 3d 37 17 c5 3c ce 1b 8c 3e
       0.061070576 0.06395713 0.024058921 0.27364963
000390 bf b5 3a be 7a 3f 0b bf d6 24 84 be d3 0e 5f 3e
       -0.18233393 -0.5439373 -0.25809354 0.21782999
0003a0 87 d5 92 3e 08 81 50 3e 45 8e 40 3e b7 0b 53 3d
       0.28678533 0.20361722 0.18804272 0.051524844
0003b0 4b 37 70 3e 6f 65 14 be db 11 7f be c4 95 a8 3e
       0.23458593 -0.14491819 -0.24909155 0.32926762
0003c0 87 af 3a be f3 70 4c be 14 54 80 3e e9 e2 de 3d
       -0.18231021 -0.19964962 0.25064147 0.108831234
0003d0 38 c2 a2 3e 4d 5d 5b 3e dd 6e a6 3d b7 86 96 3e
       0.31788802 0.2142231 0.08126614 0.29399654
0003e0 bb 92 c3 3d 4f 20 65 3e 38 f0 87 bd b8 6a 9b 3d
       0.09549471 0.22375606 -0.06637615 0.07588714
0003f0 cc db fb 3d 21 a2 4f be 05 fc 6a 3e 94 ff 66 bd
       0.12297782 -0.20276691 0.229477 -0.056396082

linear1.bias f4 [64]
000000 b1 0b 2e 3e 69 aa 2a be 90 03 7f 3e 32 30 48 3e
       0.16996647 -0.16666569 0.24903703 0.19549635
000010 d5 a8 5c 3d 78 a5 c6 3e 48 ba a4 3e c3 49 1e 3c
       0.05387195 0.38798118 0.3217337 0.009661141
000020 68 68 9a 3d 52 d7 d9 3c d1 fe 7c be 9e 16 6c be
       0.07539445 0.02659193 -0.2470658 -0.23055503
000030 5b 1b d4 bd b9 12 46 3e 5b dd a5 3e e8 b8 45 3d
       -0.1035678 0.1934308 0.32395443 0.048272043
000040 52 05 9e bd 3c cf 31 3e a6 34 af 3e de 02 ca bd
       -0.077158585 0.1736421 0.34219855 -0.09863828
000050 2e f1 a4 3d 2c d6 83 bd 23 77 ad 3d aa dd a6 bd
       0.08053814 -0.064373344 0.08469989 -0.08147748
000060 f6 1f a2 3d 08 f3 98 3e 6e c1 8d 3d c7 97 2e 3e
       0.07916252 0.29872918 0.069216594 0.17050086
000070 33 f2 83 3e 59 76 87 bd 02 fb 87 3e b5 02 d9 bd
       0.2577072 -0.0661437 0.2655869 -0.105962195
000080 fa 8a 65 3e 52 f4 29 3e a6 e6 7b 3d 09 52 5a 3d
       0.22416297 0.16597107 0.06149926 0.05330089
000090 13 3c c2 bd a0 fe 40 3e e4 29 35 be 57 f9 57 be
       -0.094841145 0.18847132 -0.17691761 -0.2109121
0000a0 94 4f bf be 87 ea 89 be 92 30 ca bd 83 44 d6 bd
       -0.373654 -0.26936743 -0.09872545 -0.10462286
0000b0 0e 81 f6 3d 7b c4 88 bd 8a ef c3 be 91 98 9f 3e
       0.12036334 -0.06678101 -0.3826869 0.31171086
0000c0 6e 26 15 bd d1 4e 65 3e 99 57 7b 3e ba 89 40 3e
       -0.036413603 0.22393347 0.24545135 0.18802539
0000d0 77 db ed 3e 93 88 8d be 6c 1c 69 be cb 69 89 3c
       0.464565 -0.2764326 -0.22764748 0.016774079
0000e0 7f f8 d1 3e 5d 27 88 3e 03 fa 36 be 27 35 99 be
       0.410099 0.26592532 -0.1786881 -0.29923365
0000f0 63 03 6d be 8c 7a 29 3b f3 3d 91 3e 46 37 fa bd
       -0.23145823 0.0025860397 0.28367576 -0.12217574

linear2.weight f4 [128, 64]
000000 ad 8a 8b be d4 13 45 3c 36 f3 b5 3d 9c 5d 2f 3d
       -0.2725424 0.012028653 0.088842794 0.042813882
000010 d5 98 6d bc 5e 85 81 3e 19 a8 48 3e cb bb bf 3d
       -0.01450177 0.25297064 0.19595374 0.093619905
000020 5f b8 d5 bd 9b 0d 27 3d 11 ae 4b 3e 41 d7 36 be
       -0.104355566 0.04078446 0.1989062 -0.1785555
000030 fe 05 89 3d 51 a9 5d 3e 68 7d 10 bd 4e ca 76 3e
       0.06690596 0.2164662 -0.035275847 0.2410061
000040 05 b9 60 bd 5b 04 9f 3d b9 33 87 3e 28 49 02 be
       -0.05486395 0.077645026 0.2640665 -0.1272322
000050 28 08 ce 3d 3b ff c8 bd 4b 62 59 3e 37 01 51 be
       0.100601494 -0.09814306 0.21228902 -0.2041062
000060 f2 3b 06 bd 6f d3 4f 3d 93 f7 38 3e 42 93 a6 3d
       -0.032772012 0.05073875 0.18063192 0.08133556
000070 d0 41 4f 3e a9 6f 85 bd 26 78 39 bd ac 00 4b 3e
       0.20239949 -0.06515438 -0.045280598 0.19824475
000080 7c 49 06 3e 8f e3 80 3d 16 de ad 3b 05 06 f1 3c
       0.1311397 0.06293403 0.0053060157 0.029421816
000090 e6 85 7c 3e d6 76 8e 3d 6f ef 0e be 98 00 6d 3e
       0.24660453 0.0695626 -0.13958524 0.23144758
0000a0 43 d8 cb 3d c0 eb 00 3e ec c6 9b bb 33 5f bf bd
       0.09953358 0.12589931 -0.004753938 -0.0934433
0000b0 5b 1e e3 3c 88 a7 dc bc 63 04 ba 3d c2 7b 99 bd
       0.027724436 -0.026935354 0.09082868 -0.07494308
0000c0 27 ab fc bb cd 5e 38 3e dd 1e 7c 3d 7c db 02 3e
       -0.0077108326 0.18004914 0.06155287 0.12779039
0000d0 dc 38 17 3e b4 04 1e 3c b8 e7 30 3d 0e d5 50 be
       0.14767784 0.009644676 0.043189734 -0.20393774
0000e0 0c 10 39 3e f5 43 f7 bd 4e 79 e3 bd 67 31 92 be
       0.18072528 -0.12073509 -0.111071214 -0.28553316
0000f0 36 ef 65 be 97 4e 57 3d 6c d4 09 be 36 6c 9e bd
       -0.22454533 0.052565183 -0.13459939 -0.07735483
000100 66 d9 25 bd c1 85 89 3c 2b 5a 23 3e 8e ac 38 be
       -0.04049053 0.016787412 0.15952365 -0.18034574
000110 21 3a c3 bd 04 9a c1 3d b8 ea de 3d 85 3d 01 3d
       -0.095325716 0.09453204 0.10884613 0.03155281
000120 45 17 a3 3d 4c 9c a9 3d c0 aa 30 3e c1 0b 00 3e
       0.07963423 0.082817644 0.17252636 0.12504484
000130 51 a3 4c 3d 56 b3 65 be 64 e0 a8 bc 99 ec 9f be
       0.04996044 -0.22431692 -0.02061481 -0.31235197
000140 51 f6 83 3d 57 71 1d 3e 8d a6 a6 3c 4f 31 08 3b
       0.064434655 0.15375267 0.02034309 0.0020781343
000150 39 d1 df bd 04 67 5c b9 f4 d5 2d be cb d4 43 bd
       -0.10928578 -0.00021019211 -0.16976148 -0.047810357
000160 a4 ad 91 bd 83 82 6d be 77 71 21 be cf 09 00 bd
       -0.071131974 -0.23194318 -0.1576594 -0.031259354
000170 0e ae 0c be e9 d3 ab 3d 5a 1f c7 3d a7 af c0 3d
       -0.13738272 0.08390028 0.09722777 0.09408503
000180 c2 91 47 3a c9 c4 16 be bc 50 a6 bd 75 60 60 3d
       0.0007612967 -0.14723505 -0.081208676 0.05477949
000190 ed 99 b8 bd 27 da 58 bd 08 00 79 3c 71 5b 93 bd
       -0.09013734 -0.05294242 0.015197761 -0.071951754
0001a0 cc 71 c5 3b 53 ef c8 bd b4 db e0 bd 4d 66 ed bd
       0.0060255285 -0.098112725 -0.10979405 -0.11591778
0001b0 d0 08 16 3d 80 81 55 bd a2 5a 90 3d 33 0a 1b 3e
       0.036629498 -0.052125454 0.07048537 0.1514061
0001c0 84 5c 89 bd a5 f9 06 bc 5e 90 5d bd ba a4 c1 be
       -0.06707099 -0.008238231 -0.054092757 -0.3782099
0001d0 db ed ad bd d7 5a 29 b9 6e 6e 62 3d fb a7 ca bd
       -0.08492633 -0.00016150936 0.055281095 -0.09895321
0001e0 26 b8 86 be a2 3c 18 be f6 1a 72 bd 2d c5 5a bd
       -0.2631237 -0.1486688 -0.059107743 -0.053410698
0001f0 e5 2d e2 bd 33 38 f4 3c a6 71 e2 3b ba 31 3f 3e
       -0.1104391 0.029811954 0.0069105206 0.18671313
000200 41 c6 60 be 89 b4 a6 bd 4a 17 c9 3d b8 7c 65 3c
       -0.21950628 -0.08139903 0.09818895 0.014006786
000210 8b 91 db 3b d5 a3 07 bc 8a a3 b7 3d 3b e4 4b bd
       0.0067006997 -0.008278807 0.089667395 -0.049778204
000220 82 35 24 3d d3 cb 15 3e 4f 3c c1 bd 0d 13 e7 3d
       0.04009009 0.14628534 -0.09435331 0.112829305
000230 ff 01 71 bd 27 bf 8b bd 21 33 82 bd 08 1b 0e bc
       -0.058839794 -0.06823569 -0.06357408 -0.008673437
000240 65 25 86 3d e8 57 a4 3b b9 1c 48 bd cf 03 62 be
       0.06550101 0.005015362 -0.048855517 -0.22071765
000250 ba eb 60 3d 50 76 49 3d 21 d8 6f 3d 72 07 11 be
       0.054912306 0.049185097 0.058555726 -0.14162996
000260 15 0d ad 3d bb 45 ae be b9 a9 40 be 84 74 0a 3d
       0.08449761 -0.34037575 -0.18814744 0.033802524
000270 4d da 27 be f0 76 5c 3c ff f1 8d bd e8 d4 66 bc
       -0.16391869 0.013456091 -0.06930923 -0.014088847
000280 a9 f2 dc 3c 67 7e a0 3d 6c c3 76 bd 23 1f 3a 3d
       0.026971178 0.07836609 -0.060244963 0.04543985
000290 84 54 da bc b3 23 58 3d 12 87 93 bc 60 68 fc 3b
       -0.026651628 0.05276842 -0.018008742 0.007702872
0002a0 70 61 63 3c 17 2e 10 3d c0 af 2d 3d 5c 51 65 be
       0.013878211 0.035200205 0.042403936 -0.22394317
0002b0 3e 3f df 3d fc 10 ca 3d 15 c3 3d be 06 77 94 bd
       0.10900734 0.09866521 -0.18531449 -0.072492644
0002c0 38 9b d1 bd 20 4b 02 3e 90 f9 9e be f7 67 d9 be
       -0.10234684 0.1272397 -0.31049776 -0.4246213
0002d0 a7 0d 81 be ca 13 4d 3d 46 94 dc bd ee 4b e5 3d
       -0.25205728 0.0500677 -0.107704684 0.11196123
0002e0 2a 1b 67 be 79 06 ac be 94 49 2e be a2 1b 93 bc
       -0.22568956 -0.33598688 -0.17020255 -0.017957512
0002f0 4b 6a dc 3d 5e 32 71 3d 45 4f fe 3d 32 4b ae 3b
       0.10762461 0.058885925 0.12417463 0.0053190226
000300 56 18 51 be 5d 11 01 3d ee 60 a7 3d f1 d1 34 3d
       -0.2041944 0.0315107 0.08172785 0.04414553
000310 4a b1 95 3d 90 20 70 bc e1 24 33 bd f3 ab b5 3d
       0.07309206 -0.014656201 -0.043736342 0.08870687
000320 80 55 1f 3e d7 89 c9 3d 8b 5d 71 bd ab 4e 9b bd
       0.1555996 0.09840744 -0.0589271 -0.07583364
000330 01 78 de 3d 68 6c ef 3c 4b fb f8 bc 8d 2a 5b 3e
       0.10862733 0.029226497 -0.030393263 0.2140295
000340 fd 61 05 be b6 31 e6 3d b2 4d 07 3d 8c cb 8a be
       -0.13025661 0.1123995 0.03303308 -0.2710842
000350 26 4b 58 bd 5e fd ab 3d 98 8e b3 bd 44 ca 75 be
       -0.052806042 0.08397935 -0.08767432 -0.2400294
000360 50 32 9a bd 0b 2e 40 3e 29 a0 0a 3c 32 61 f2 3d
       -0.075291276 0.18767564 0.008461037 0.11834945
000370 67 ea c5 bd 80 6f d7 bd 89 34 fc 3d 54 ed 73 3d
       -0.09663849 -0.10519314 0.12314708 0.059552506
000380 10 59 d0 3d 31 d4 73 3e d3 ee 2e 3e d5 60 cd 3b
       0.10173237 0.23811413 0.17083292 0.006267647
000390 8c a6 4e 3e 8b 0b 7b 3d 08 a9 8b 3b 65 07 2b bd
       0.2018072 0.061290305 0.0042620935 -0.0417551
0003a0 b9 9a e1 bc fc 81 8c bd b5 f9 0e 3e 86 09 7f be
       -0.027539598 -0.0686073 0.13962443 -0.24905977
0003b0 c7 ae 80 bd 17 56 26 be 88 08 18 bd 59 e9 42 bd
       -0.06283336 -0.16243778 -0.03711751 -0.04758582
0003c0 9d 16 b6 bd 78 6a 9f 3d ea 55 71 be 5e 91 0e be
       -0.08891032 0.07783979 -0.2356793 -0.1392264
0003d0 94 b3 e2 3e 5e fe 3a be ca 8f 5e be fc d9 90 bd
       0.44277632 -0.18261096 -0.21734539 -0.07072827
0003e0 1c 1c 84 3d 0d aa a8 bd f5 6f 40 bd 60 9d 9f bd
       0.06450674 -0.082355596 -0.04698177 -0.07793689
0003f0 00 02 84 3d 86 84 04 3d a1 19 77 bd 27 d4 bf 3c
       0.06445694 0.032352947 -0.060327176 0.023416592

linear2.bias f4 [128]
000000 a5 10 06 3d 5d 8d 4d bc 84 ae 21 bc d2 ce b9 bc
       0.032730717 -0.012545911 -0.009868268 -0.022681627
000010 70 63 b3 bd c4 39 da 3d 64 db d5 3d ee dc 3a 3c
       -0.087592006 0.10655549 0.10442236 0.011405213
000020 d9 f8 1b bd c2 18 14 3b f6 0b b1 3d 96 c6 63 bb
       -0.038079116 0.0022597765 0.086448595 -0.0034755818
000030 e0 f1 f5 3d 22 1c 67 bd df fd b0 3d 48 cf 3f bd
       0.120090246 -0.056423314 0.08642172 -0.04682854
000040 7e 8c ba 3d b4 4c 43 3d e2 58 e7 3d 8c b4 b8 3d
       0.09108828 0.04768057 0.1129625 0.090188116
000050 6b 89 5f bc 2e f7 69 bd 5e ff bd 3d ab 4e 04 3e
       -0.013643603 -0.057120495 0.09277223 0.12920634
000060 00 e0 09 3e 9a 74 a6 bd 29 59 a8 bc 7b 33 e4 39
       0.13464355 -0.08127709 -0.020550327 0.00043525905
000070 f3 6e bd 3d 0a 5c b4 3d 65 cf fe bc a7 b2 35 3d
       0.092496775 0.088066176 -0.031104753 0.04435983
000080 6a 09 9f bd 9e e2 15 bd 96 0b 88 bd fa 8f 86 bd
       -0.077654675 -0.036593072 -0.06642835 -0.0657043
000090 50 e3 ac 3d 94 56 fa 3d 08 f1 9f 3d c1 2f 00 3e
       0.08441794 0.12223545 0.07809645 0.12518217
0000a0 7a 96 97 bd 3e c5 08 3e 87 31 92 bc 18 de b7 3c
       -0.07401748 0.13356492 -0.017845882 0.02244477
0000b0 dc e2 b5 bd 86 21 88 3d f7 c7 66 3d 2f 46 3a 3d
       -0.088811606 0.06647019 0.056343045 0.04547709
0000c0 ba 50 01 be a4 86 24 3e 18 6a 19 3e cb 8a 1a be
       -0.12628451 0.16066986 0.14981878 -0.15092008
0000d0 df 8c 7b 3d 64 69 91 3c 13 aa 60 bd 07 0e 84 bd
       0.061413642 0.01775045 -0.054849695 -0.06447988
0000e0 f6 dc 0b 3e a3 e5 db 3d e7 26 f8 bd cb 63 a2 3d
       0.13658509 0.10737159 -0.12116795 0.0792919
0000f0 56 e1 2e bd ed 25 43 3d 62 55 ce 3d 1f 2c 3f 3d
       -0.042695366 0.04764359 0.10074879 0.046672937
000100 68 ee 1d bd 88 da 65 bc f6 9a 96 bd aa 83 24 3d
       -0.03855744 -0.014029153 -0.07353775 0.040164627
000110 0e e3 16 3e 19 6e 13 3e 51 e8 c9 3d be 5b 98 bd
       0.14735052 0.14397468 0.09858764 -0.074393734
000120 fe ba fd bd 88 84 da 3d aa e2 0e be 77 5f 19 3e
       -0.123891816 0.106698096 -0.13953653 0.14977823
000130 63 2a eb 3d 8b a5 68 3c b4 07 02 3d 55 6f 04 3e
       0.11482694 0.014199625 0.031745628 0.12933095
000140 42 a4 ac 3d e3 c8 0a 3d 5c a4 9e 3d 75 0f 0c be
       0.08429767 0.033882987 0.07746193 -0.13677771
000150 7d 4d 78 3c 68 a1 17 3e 33 21 0e 3d 17 e6 a6 bd
       0.015155193 0.14807665 0.03469963 -0.08149355
000160 9b 3b f4 3d a5 e1 18 bd 04 bc 20 be b4 72 90 3c
       0.11925431 -0.037324566 -0.15696722 0.01763282
000170 18 3e cc bc 22 32 aa bd 19 a7 a6 3d d7 16 f8 bd
       -0.024931952 -0.08310343 0.0813734 -0.12113731
000180 92 12 4b 3d 0e 7d 0d 3d d0 5c 94 bd d4 f6 87 3d
       0.049578257 0.03454309 -0.07244265 0.066388756
000190 17 99 14 be 78 0b 81 3d a0 13 2f bd 52 62 9a 3c
       -0.14511524 0.063010156 -0.042743325 0.01884571
0001a0 92 a1 58 bd 82 be 13 be c8 2c 06 3e 65 de 26 bd
       -0.05288846 -0.14428142 0.1310302 -0.040739436
0001b0 fb 5e b3 3d dd b2 90 bd 94 94 e7 3a 40 e9 19 3e
       0.087583505 -0.070653655 0.0017668181 0.15030384
0001c0 26 c7 6e 3d e5 c5 00 be 47 be 0d 3d bd d2 13 3e
       0.05829539 -0.12575491 0.03460529 0.14435859
0001d0 db db b8 bd 15 0f 25 bc d6 03 16 be 1e 6f 39 bd
       -0.09026309 -0.010074397 -0.14649901 -0.045271985
0001e0 f5 04 a4 3d 39 07 b7 bc 84 b5 db bd 11 78 ae bd
       0.08008758 -0.022342311 -0.10727981 -0.085189946
0001f0 d0 f1 20 3d 56 3f 94 bd 6f ac 14 bd f9 94 9a 3d
       0.03929311 -0.07238643 -0.036297258 0.075479455

linear3.weight f4 [64, 128]
000000 3a 13 84 bc 90 84 a2 bd 02 8d 53 bd de 60 88 bc
       -0.01612245 -0.079354405 -0.051648147 -0.016647752
000010 18 51 61 3c 31 91 75 bd e0 41 1e bc 38 f0 18 3d
       0.013752244 -0.05995292 -0.0096592605 0.037338465
000020 a9 1e 92 bc 25 f8 bf bc d9 b8 30 bc 17 87 32 bd
       -0.017836886 -0.023433754 -0.010786259 -0.043585863
000030 a4 ed ec 3c b3 89 5a bd 62 8f ee bd 3c 87 a5 bd
       0.02892191 -0.053353976 -0.11648442 -0.080824345
000040 79 c8 71 bd 21 11 88 bb 38 99 b5 3b ce 1f 35 bc
       -0.059029076 -0.0041524325 0.0055419467 -0.011054946
000050 c8 3d 92 3c 4e 80 9c bd da 97 2b 3d 45 cf 6a 3d
       0.017851725 -0.0764166 0.041892864 0.057326574
000060 e7 7f b4 3c 34 36 0c bd 48 04 80 3c 4c de 77 bd
       0.022033645 -0.03423138 0.015627041 -0.060514733
000070 2d 03 a9 bb e6 b6 78 bd 19 8f b6 bd f7 f8 dc bd
       -0.0051578493 -0.0607213 -0.089140125 -0.10789674
000080 d8 e3 a4 3c 6e dc 61 bd c8 8b 46 bd f8 e0 db bd
       0.020128176 -0.05514186 -0.04847315 -0.10736269
000090 77 31 a2 bd b6 10 f1 3c 28 50 e0 bd bf ab 10 bd
       -0.07919591 0.029426914 -0.109527886 -0.03532004
0000a0 60 0a ac 3c 8b 7c cd bd 14 f4 a8 bd 57 d1 72 bd
       0.021001041 -0.1003352 -0.08249679 -0.059281673
0000b0 f6 f8 c0 bc fd 94 96 3d 15 b1 db bc f1 77 0a bd
       -0.023556214 0.07352636 -0.026817838 -0.03380579
0000c0 e6 0e 72 bd 00 31 0d bc 81 a5 17 bb 5a e3 16 bd
       -0.05909624 -0.00861764 -0.002313942 -0.036837913
0000d0 1a 71 28 3d ce fd 71 3d 35 09 83 bb d4 83 43 3d
       0.041123487 0.059079938 -0.0039989003 0.047733143
0000e0 29 10 95 bd ba 68 a8 bd 71 8c 32 bd 71 e9 b5 bd
       -0.07278473 -0.082231 -0.043590967 -0.08882416
0000f0 e3 b5 bc 3c 1e 41 25 bd bf f9 af 3d 9f e2 30 3b
       0.02303595 -0.040345304 0.08592557 0.0026990545
000100 ce 77 33 3d a4 0c 32 3c dc 44 ec 3c 98 16 77 bc
       0.043815427 0.010867272 0.028841428 -0.01508107
000110 c7 44 d4 bd bb 62 29 bb 22 2f 7f bd 12 23 4a bd
       -0.10364681 -0.0025846201 -0.06230081 -0.049349852
000120 60 cd c7 3b 32 95 f3 bc f7 c4 5b 3d 4e ec a8 bd
       0.0060974807 -0.029734228 0.053654637 -0.082481965
000130 1a bf 9d bd 13 9f 3f bc 43 73 00 bd 50 73 15 bd
       -0.07702465 -0.011695641 -0.031359922 -0.036486924
000140 6a 10 46 bd b9 22 82 bc b7 47 ad bb ec ab 4d 3d
       -0.048355497 -0.015885698 -0.00528809 0.050212786
000150 85 79 85 3d 71 45 10 3c 5f 7d 11 bd a4 8e e8 bc
       0.06517319 0.008805619 -0.035519954 -0.028388329
000160 d9 87 b0 bd 37 a1 c5 bd 14 ef b0 bd 63 9c 7a 3d
       -0.08619661 -0.0964989 -0.086393505 0.0611843
000170 3a 08 8a bd 8d 99 04 bd 3b d8 90 bd 82 87 8a 3c
       -0.0673985 -0.032373 -0.07072493 0.016910318
000180 03 f3 80 bc 9e 27 40 3d df cd b3 bd cd 4c 07 bc
       -0.015740877 0.046912782 -0.08779501 -0.008258057
000190 25 15 48 bd 45 64 a6 bd 05 13 7e 3d 3c 30 26 bd
       -0.04884829 -0.08124594 0.062029857 -0.040573344
0001a0 e6 d1 d3 bd ce 25 05 3d ea 41 c3 bd 2e e6 8c bd
       -0.10342769 0.032506756 -0.095340565 -0.06879841
0001b0 7f ab 9a bc 11 bd c4 bd ae d5 5d bd 2a b9 3a bc
       -0.018880604 -0.09606374 -0.05415886 -0.011396686
0001c0 5d ac e8 3a 2e ae 9d 3c 9c b4 19 bd d5 15 ac 3b
       0.0017751564 0.019248094 -0.03752576 0.005251626
0001d0 7b 42 a0 3d d3 39 5c bb a1 42 d5 bd 53 49 85 3d
       0.0782518 -0.0033603802 -0.10413099 0.06508126
0001e0 cc f5 16 bd b6 8f e0 bc 61 cf 94 bd 73 f5 2a 3d
       -0.036855504 -0.027412277 -0.07266117 0.041737985
0001f0 0c f8 40 3d da 4c 9b bd 55 db 04 3d 88 ff 6f bc
       0.047111556 -0.07583018 0.032435734 -0.014648326
000200 94 09 30 bd 6d a4 02 bd ad bc 6c bd a5 ce 72 bc
       -0.042977884 -0.03189509 -0.057797123 -0.014819776
000210 d7 ef 5d bc 75 4a 50 bd 3e c9 c6 3c ab 5c 37 bd
       -0.013545952 -0.050852258 0.024265882 -0.04476611
000220 40 81 31 bd 82 2f 1d 3d 18 25 3c bd 1f 40 37 bd
       -0.043336153 0.038375385 -0.045933813 -0.044738885
000230 e9 02 91 3d 8f 59 9b bd 9d 7e ae bd 27 cf 3a 3d
       0.07080633 -0.07585441 -0.08520243 0.045607712
000240 12 6d 6d bd b9 29 87 bd d5 dc 59 bb 35 a2 5d bd
       -0.057965346 -0.06599755 -0.0033243198 -0.05410977
000250 ac 44 a9 bd db 82 e5 bd 0e 44 83 bc 5d 1d 5f 3d
       -0.08265051 -0.11206599 -0.016023662 0.054471362
000260 66 7c 2d 3c 7b df 0b 3d 20 66 2a bd fd 29 30 bb
       0.010588741 0.034148674 -0.0416013 -0.0026880496
000270 16 94 88 bd 8d 29 da bc 9e f1 cb 3c c6 7b 1d bd
       -0.0666887 -0.026631141 0.024895485 -0.038448118
000280 0c 51 2b bd 9e 8b 76 3d 27 6d bb bc ca b2 4f bd
       -0.04182534 0.060191743 -0.022879196 -0.050707616
000290 35 ae 48 bd ad 22 a2 3c 58 8a ef bc ef e4 e1 bd
       -0.04899426 0.019791925 -0.029240772 -0.11029994
0002a0 28 5c 35 3d 9a 25 73 3d 4e bf 3d 3d 91 65 94 bd
       0.04427734 0.05936203 0.04632502 -0.07245935
0002b0 75 90 18 3d 3d d4 1a bd 19 83 2d bd 5f 1e 21 3d
       0.03724714 -0.037800062 -0.042361353 0.039335605
0002c0 a1 bf 81 3d 8a ce 1c bc 25 a0 50 3c 4b 02 dd bc
       0.063353784 -0.009570727 0.012733494 -0.026978632
0002d0 e2 b1 81 bd 26 f9 1d bd c1 f5 86 bc a4 a0 4e 3d
       -0.063327566 -0.038567685 -0.016474606 0.050446168
0002e0 9a 1d c3 bd 70 a9 02 3d 49 42 bb bd 19 0c 95 3a
       -0.095271304 0.03189987 -0.09143502 0.0011371403
0002f0 3c e5 57 bd 66 a9 f4 3c 32 36 d7 3a ce 3c 9c ba
       -0.05270885 0.029865932 0.001641935 -0.0011919977
000300 9e a0 36 bc 8d e2 83 3d c5 c7 84 3d f1 10 56 3c
       -0.011146693 0.064396955 0.064834155 0.013065563
000310 70 7d d7 bd 97 3c 05 bc 12 f6 b4 3b 18 68 81 bd
       -0.10521972 -0.0081321215 0.005522498 -0.063186824
000320 70 ae 83 bb 0e 4d 51 bd 7b 59 83 bb e1 86 d6 bc
       -0.0040185973 -0.051098876 -0.0040084696 -0.026187362
000330 30 35 78 bd 84 5f 5d bd 27 3e 0c bd 22 5b 16 3d
       -0.0605976 -0.05404617 -0.03423896 0.036708005
000340 8d 24 cf 3c d7 ca 0c 3d 54 fe 3c 3d 2e 06 6c bd
       0.025285983 0.03437313 0.046140984 -0.05762308
000350 81 26 03 3d 62 8e 7d bc 78 48 88 3c 5f 65 0c 3d
       0.032019142 -0.015475841 0.016636118 0.034276363
000360 6a 51 c5 bd 61 c5 6f bc 08 2a b0 3c 3f fe 7a 3d
       -0.09634669 -0.014634461 0.021504417 0.061277624
000370 b0 c1 82 bd a6 0d 3f 3d 1c 83 d1 3c 20 8a 0b 3c
       -0.06384599 0.046643876 0.025575213 0.008516818
000380 6f 74 0d 3c 61 92 7c 3d 01 bc 88 3d 67 8c 06 3d
       0.008633717 0.061663035 0.06676484 0.03284874
000390 f4 ce 57 3d 19 95 52 3d ca 48 ab 3c 32 3f 32 bd
       0.0526876 0.05141172 0.020908732 -0.0435173
0003a0 b6 68 40 bd 80 13 d1 3a 31 ca de bd 00 f2 8d bd
       -0.04697486 0.0015951246 -0.10878409 -0.069309235
0003b0 04 cf 9f bd ee 47 fd 3c ca d0 7c 3c 38 09 ce bd
       -0.07803157 0.030918088 0.015430639 -0.10060352
0003c0 27 c0 4e bc 15 a4 90 3c ad 42 10 3a 54 89 c7 bd
       -0.012619055 0.017656365 0.00055030995 -0.0974299
0003d0 07 ff a3 bd 87 2b c5 bd fa 2b c4 bd d8 f7 09 bd
       -0.08007627 -0.09627443 -0.095787 -0.033683628
0003e0 4b 59 e6 bd 68 d5 a4 3c 60 12 f2 bb f8 fb 70 3b
       -0.112475 0.020121291 -0.0073874444 0.0036771279
0003f0 ee 8a 3a bb 2f c5 9b bb 29 3e 56 bd c0 4a 19 bd
       -0.0028464156 -0.0047537307 -0.052305374 -0.037424803

linear3.bias f4 [64]
000000 6e e5 87 bd 87 9a e9 3c ab a0 04 3e 24 0b 72 3d
       -0.06635557 0.028516067 0.12951915 0.059092656
000010 4a b9 c3 3c 66 2f 23 3d ec 69 9c 3c 56 af f3 3d
       0.023892064 0.039840125 0.019093476 0.11898677
000020 71 df f7 bc 7a 11 11 3d 36 3a 99 bc e8 ee bb 3d
       -0.030257912 0.035417058 -0.018704515 0.09176427
000030 c3 3d c1 3d 6e 15 1c bd 19 ac ae 3d 7d 5e 41 bd
       0.09435608 -0.038106374 0.08528919 -0.04720925
000040 6e 97 a8 3d 49 95 80 bd 74 9b 43 3c bf 63 de ba
       0.08232008 -0.06278474 0.011938918 -0.0016966983
000050 c5 ee d3 3d 41 9d 21 3e 38 c5 8a 3d 5e 03 7e 3d
       0.10348276 0.15782644 0.06775898 0.06201493
000060 d1 27 ad 3b 08 47 44 3b 09 ef 69 bd b1 af df 3c
       0.0052842875 0.0029949564 -0.057112727 0.027305456
000070 52 ff cd 3c 90 d0 34 3d 58 74 d1 3d e8 d8 3e 3d
       0.02514616 0.044144213 0.10227269 0.046593577
000080 81 c1 37 bc fe f5 a6 3d 49 9e 16 3e d3 2c 92 3c
       -0.0112155685 0.08152388 0.14708818 0.01784364
000090 0a 95 10 3c cb 56 15 3e b9 b5 cd 3d fd 5c 34 3d
       0.008824596 0.1458389 0.100444265 0.044033993
0000a0 a5 72 ac 3c 4f e6 c5 3d e3 34 85 3d 63 01 4e bc
       0.02105076 0.096630685 0.06504228 -0.012573573
0000b0 0e 19 8f bd 55 60 04 bc 96 06 f8 ba ae c6 9c 3c
       -0.06987201 -0.008079608 -0.0018922861 0.019137707
0000c0 61 60 fe 3d 0b ee 78 3d 87 9e 3b bd 86 7a ac 3d
       0.124207266 0.06077389 -0.04580548 0.08421807
0000d0 a1 7e 19 3e 00 66 fa 3d b7 53 51 3d 84 40 88 3d
       0.14989711 0.12226486 0.051105227 0.066529304
0000e0 27 8f 89 3b 85 de 99 bc c8 08 d2 bc e9 7c 96 bc
       0.0041979733 -0.018782863 -0.025638953 -0.018370109
0000f0 8d 12 06 3e 86 77 a2 3d 58 03 2a 3e 25 91 c3 3d
       0.13093014 0.079329535 0.16602838 0.095491685

linear4.weight f4 [8, 64]
000000 8c ae c5 3c a2 83 98 bd b4 0e 4b 3b b3 53 a4 bd
       0.024131082 -0.07446982 0.0030984106 -0.08023777
000010 f6 95 21 3e 4e b0 9f bd 51 45 ce bd 1e 32 72 3d
       0.15779862 -0.07797299 -0.10071815 0.059129827
000020 04 fa 20 be c4 9a aa bb 63 59 24 3e a4 26 44 be
       -0.15720373 -0.005206438 0.16049723 -0.19155365
000030 00 2b 38 3c a3 2d 17 3c c9 be 0e 3e ee df d8 3d
       0.011240721 0.009227189 0.13939966 0.10589586
000040 0d e8 49 be 6a 3b 56 bd cf f7 dd 3c db 3a d2 bc
       -0.19717427 -0.052302755 0.027095703 -0.02566283
000050 d4 56 00 be 8d d7 e1 3c 83 41 a9 3d 72 89 b0 bd
       -0.12533122 0.027568603 0.082644485 -0.086199656
000060 ec be 25 bd 4b 5a 52 bc c9 7b 3e bd 8f b6 88 3c
       -0.04046528 -0.01283891 -0.04650477 0.016688613
000070 4b 88 44 3c 02 28 02 3e b9 45 2d bd fe 00 6c bd
       0.011995385 0.12710574 -0.04230282 -0.057618134
000080 12 21 9e 3c 88 b8 24 bc 6c 37 39 be 30 78 19 3e
       0.019302879 -0.010053761 -0.18087548 0.14987254
000090 83 a7 ab bd c0 e5 c4 bd a1 95 e1 bd 1e 09 bd 39
       -0.0838156 -0.09614134 -0.110148676 0.00036055682
0000a0 5a 2e a1 bd 09 42 59 bd 8f 0f 0b 3d 5f 65 fc 3c
       -0.07870169 -0.05304149 0.033950385 0.030810056
0000b0 34 e1 76 bd cc 92 2a 3d ff 78 ac bc 30 3b 26 3d
       -0.060273364 0.041643903 -0.02105379 0.04058379
0000c0 6e 92 e1 bd eb d3 e7 bb e7 5e 0e be e8 58 08 3b
       -0.11014257 -0.007074823 -0.1390339 0.0020804945
0000d0 26 49 36 be 0c 84 43 bd 34 e4 94 bd 1d f0 72 3d
       -0.17801341 -0.04773335 -0.07270089 0.05931102
0000e0 c5 76 35 3c 6c 81 1f be 9b ab ac bd 96 4d 28 3d
       0.01107568 -0.15576714 -0.08431169 0.041089617
0000f0 c0 3d 3e be b3 d0 b9 3d 00 f7 b4 bd b6 cb 29 be
       -0.18578243 0.09073009 -0.08836174 -0.16581616
000100 25 8b 64 3b ea 98 a7 3d 54 be 9b bc 24 f6 81 3d
       0.0034872976 0.08183463 -0.019011654 0.06345776
000110 f7 e1 61 3d a0 27 0b 3e d3 7a a9 3e e8 a1 d7 bd
       0.055147137 0.13589334 0.3310152 -0.10528928
000120 79 7f 20 bd 2c 59 80 bd 49 04 19 3a 3b 6f 4b bd
       -0.039184067 -0.06267008 0.00058371254 -0.049666625
000130 c5 38 cd bc 54 c9 c6 3d a3 40 0b be 60 05 9e 3d
       -0.025051484 0.09706369 -0.13598876 0.07715869
000140 93 c8 dc 3b 4c fd aa bd 36 5c 4d 3d dc d5 e2 bc
       0.0067377775 -0.08349094 0.050136767 -0.027689867
000150 b2 4c 3a bc 04 b3 ee bd 74 48 94 3d 39 21 9e bd
       -0.011370825 -0.11655238 0.07240382 -0.077211805
000160 71 e7 01 be 59 da 3c bd 11 ae 96 3d ad 6e c6 3b
       -0.12685944 -0.04610667 0.07357419 0.006055674
000170 54 bb 39 3d f1 b4 a5 bd f2 eb c8 3b 00 82 b8 bd
       0.045344666 -0.080911525 0.0061316425 -0.090091705
000180 9f 12 c1 3d 69 a0 a9 3d 7a fb df bd 21 0b f9 3d
       0.0942738 0.08282549 -0.10936637 0.12160326
000190 07 64 25 bd bc 33 96 3d 2e 9f c7 3d ae 5d 69 bd
       -0.040378597 0.07334086 0.09747158 -0.056974106
0001a0 0a 8e ff 3c ff e2 d2 bd 60 bb e7 3c c3 16 80 3d
       0.03119566 -0.10297202 0.02828759 0.062543415
0001b0 65 29 fe 3c f4 04 8f 3d 16 e1 0c 3d 6d d0 de 3c
       0.031025598 0.069833666 0.034394346 0.027198995
0001c0 72 61 e7 bd 42 75 36 bd 7b 64 a1 bd 20 40 ca 3d
       -0.11297883 -0.04454542 -0.07880493 0.09875512
0001d0 1a 65 ae bd 43 6b c4 bd 9f 47 22 be ba 51 d6 bd
       -0.08515377 -0.09590771 -0.15847634 -0.10464807
0001e0 c3 3f 8e 3d 98 95 9b bc 18 f9 ab 3b 7c 8a 28 bd
       0.06945755 -0.01899223 0.0052482 -0.041147694
0001f0 56 ba 12 be 94 39 04 be c0 16 39 be 41 7c 32 3e
       -0.14328894 -0.1291259 -0.18075085 0.17430212
000200 6b 93 83 3d 20 29 1e 3d a9 44 e9 3c d8 61 10 3d
       0.06424602 0.03861344 0.028475123 0.03524956
000210 b4 53 b5 3b 95 70 b9 3d 62 cb 00 be e6 bb 90 bd
       0.00553366 0.090546764 -0.12577584 -0.07067089
000220 13 16 0b 3d 51 04 51 3d e2 95 17 bd d4 35 3b 3c
       0.0339566 0.051029507 -0.037008174 0.011426408
000230 ad 85 b7 bd 0f 8e 4b 3c 5b 36 0d bd 2b 7d a9 bc
       -0.089610435 0.012424006 -0.034475666 -0.020689568
000240 82 d5 9a bd 50 14 ce 3d fa 95 8e bd ef 5e a0 3c
       -0.07560255 0.10062468 -0.069621995 0.019576518
000250 87 09 13 be 88 b3 be 3d 26 fd 50 bd e7 da fe bc
       -0.14359103 0.093115866 -0.05102267 -0.03111024
000260 d0 7d e8 39 5f d3 02 be a0 78 87 3d 24 9e 75 3d
       0.00044344226 -0.12775944 0.06614804 0.059965268
000270 3a 53 29 3d aa 8f 09 be e2 93 9e bd 77 f8 aa bb
       0.041339137 -0.1343371 -0.0774305 -0.0052176076
000280 1b f7 c5 3c fc 40 31 3d a6 52 72 3e 30 4d 7b bd
       0.02416568 0.043274865 0.2366434 -0.06135291
000290 83 11 95 3d 83 1a 6c 3d 7a 46 19 bd d2 5f 92 bd
       0.07278731 0.05764247 -0.037420727 -0.071471825
0002a0 96 4d df 3c 53 84 df bc a9 a2 05 be 99 91 c1 3d
       0.027258676 -0.027284777 -0.13050331 0.09451599
0002b0 47 37 31 3d 06 72 b1 bd 68 e6 c5 3d 4c 28 af bc
       0.043265607 -0.08664326 0.09663087 -0.02138152
0002c0 4b c0 1d be 7a 41 d1 3d 74 80 b8 3d 7a 84 39 be
       -0.15405385 0.10217567 0.090088755 -0.18116942
0002d0 d5 4b 04 be 68 c4 fe 3d 12 e1 05 be 9f 76 db bd
       -0.12919553 0.12439805 -0.13074139 -0.107159846
0002e0 f8 b6 35 3d 70 f6 46 be d7 8c 40 bd c0 49 2e bd
       0.044363946 -0.19429946 -0.047009315 -0.042550802
0002f0 bf 40 fd 3d 7c 39 eb bd 6e 43 a3 3c d7 3e bb 3c
       0.12365865 -0.11485574 0.019929614 0.022857113
000300 96 38 f5 bd 4f 7d a1 3c 9a 97 08 be 1b c3 0d be
       -0.119736835 0.019713072 -0.13339081 -0.13843958
000310 b1 8d 05 3e d7 42 e3 bd 28 fe 9e bd 4b 0e e4 bd
       0.13042332 -0.11096733 -0.0776332 -0.11135539
000320 e8 47 5b bb 68 f0 0c bd 8f 9d e2 3d ab 30 07 bd
       -0.0033459608 -0.034408957 0.11065208 -0.033005398
000330 3e 5a b7 3d 0d 31 b7 bd e0 ab c4 3b 6c 6b 1d be
       0.08952759 -0.089449026 0.0060019344 -0.1537301
000340 85 ff 95 3d 0f e7 c0 3d 47 e8 09 be b3 3a a5 3d
       0.07324127 0.09419071 -0.13467513 0.080678366
000350 00 2a a7 bc 66 ee 3c 3d 31 f8 dd bd 24 34 a1 bd
       -0.02040577 0.046125792 -0.108383544 -0.07871273
000360 4a 64 66 3d b6 5b 43 3e 24 a6 d3 3d f6 50 13 bb
       0.056247987 0.19077954 0.10334423 -0.0022478676
000370 92 03 4f be 90 3c 17 be 81 a9 e4 bc 82 39 0a b9
       -0.20216206 -0.14769197 -0.027912857 -0.00013182129
000380 50 fd 0c bc 14 f7 08 be 0f 6e 81 bd 8a 9d 9e 3c
       -0.008605316 -0.13375503 -0.0631982 0.01936223
000390 08 32 e7 bd 78 23 c7 3c 61 38 00 3d db e0 8b bd
       -0.112888396 0.024308905 0.031303767 -0.06829997
0003a0 5b 97 a4 bd 37 89 34 bd 2d 7d 85 3c c6 01 b4 bc
       -0.08036681 -0.04407617 0.01629504 -0.021973502
0003b0 f8 51 81 bb 6d f8 4f 3d e5 14 35 bd 2f 98 90 3c
       -0.003946539 0.050774027 -0.04420938 0.017650692
0003c0 24 ea a1 bd 22 43 04 3d fc 23 4c bd 55 16 ed 3d
       -0.07905987 0.032290585 -0.049839005 0.11576525
0003d0 39 67 f1 bd 8b f1 26 be 13 68 0a 3e 9a fc 0f be
       -0.11787266 -0.16303079 0.13516264 -0.14061204
0003e0 04 be 0f be 86 f6 0b 3e b8 69 ce 3b eb 33 5f bd
       -0.14037329 0.1366826 0.0062992238 -0.054492872
0003f0 12 b6 fe 3d 21 a2 26 bd ca 09 d8 3d 5b 0b 1e 3d
       0.12437071 -0.040681962 0.10548742 0.03858505

linear4.bias f4 [8]
000000 86 23 68 bd 25 9a ba bd 50 af 04 be 37 e7 14 be
       -0.056674503 -0.09111432 -0.12957501 -0.14541326
000010 22 6e fb bd 98 65 30 be 7b 5d 8d bc 39 df 20 be
       -0.122768655 -0.17226255 -0.017256489 -0.15710153
