non_local_NN.pth (torch, 74323 bytes, 8 tensors)

linear1.weight f4 [64, 8]
00000000: d20f 913d 0cb2 9cbd 2598 fd3d 9388 3b3d
00000010: 6a8b d43d f6f5 be3e 32e4 58be 3897 bd3d
00000020: 7166 653d 203a e3be 286a 853e 539d a33d
00000030: 035f 89bc ec7d b3be 3c8a ad3d aecf 573e
00000040: 6961 4f3e be50 1a3e f37b 65be f729 a9be
00000050: 885c 9e3e 464f efbd 3314 9c3e 0d05 0fbe
00000060: fe12 a3be 81af 6dbe ed26 90be 056e eb3d
00000070: c410 f5be eb21 803e 4abf a53e 77b5 a63d
00000080: 3b5c 533c f0fb 823e 6ef9 11be 31de 57bf
00000090: 776a 1cbe a1b0 4f3e f69c 98be 40da ad3e
000000a0: b3cb 22be 2b64 a83e 585e 87be aea6 073e
000000b0: d611 033e 8465 913e b1f4 253e f5a4 573e
000000c0: c1ac efbe 5280 353e bc97 2abe 4830 9e3e
000000d0: 049a 77bb d7f0 f63d 823e 60be f5fd f53c
000000e0: 0938 073f d973 763d 053b 8b3e 5ed0 c4be
000000f0: be92 54bd 2be9 28be c29e 9ebd 24d2 d7be
00000100: 1c74 103e 5303 893e 09d0 443e dfc7 8abe
00000110: d5f8 133e b777 89be e8e8 66bd 39ce d1be
00000120: 3dfb 19be a329 9b3e ca7a 423d fe90 6c3e
00000130: 91c1 b6bb 890a 78bd cc8b 84bc ee24 d1be
00000140: efd5 06be 6ad5 713e 06e8 2bbe c7e3 013e
00000150: 8775 8cbd bb21 d1be a28b 2b3e 4cfa 663e
00000160: bf7c d2bd 3b19 bdbe 48c2 233e 7a9f 01bf
00000170: 947a b33e 37ad 85be 253e 093e 7f9d ec3d
00000180: d092 a63d 9129 8abc b6cf 64bd b08c a8bd
00000190: 2c84 5cbf 8fa1 de3e a0f5 cd3d 6cf3 173e
000001a0: 039b dc3d 3e58 e13d 65bf 2dbf 6c1e 343e
000001b0: 106e acbd afb1 50bd 1db1 4abe 1f7e 1c3e
000001c0: 9012 b63d 09ee b5be fc8d 803e 2252 393e
000001d0: 5285 7e3d 2def 403e a0fc a7be c32d 6cbe
000001e0: 796d 1f3e 6ae3 36be 035c c33d a507 073e
000001f0: b1bf aa3c f0c4 f1be 3360 a03e 02ce 55be
00000200: 1dc7 f8be e868 22be 4737 093e f025 d6be
00000210: 572f 103e cfa7 d73c 76cf 903e 3fe1 df3d
00000220: b05c 833b cf63 92bd 9535 c53d e2c6 f4bd
00000230: be21 4b3e 62eb a23d b0c9 7f3e 5d85 8d3d
00000240: cd43 afbd 2c7d babe b4d4 7a3e 38cd 043e
00000250: 9a79 9f3e 2488 9b3e df6d a9bc 3c07 983e
00000260: a7b0 343e 6f96 f43d 2809 c73e 8fc0 353e
00000270: d203 a63e 71c6 833e 97ed edbe f67b b5be
00000280: 988f 21be b24b 84bd d53d 923e 82b4 b2be
00000290: ed57 aa3e 171b 2a3e 3ed6 b6bd 8ea8 a6be
000002a0: 4376 c13c 71da 9abe 5242 913d d706 0c3e
000002b0: f5c0 dabc c669 813e dad8 913e 6051 e7bd
000002c0: 225a 26be 18a3 403e 1b43 f03d d6de 393e
000002d0: 7bcc 8cbe 66cd cd3d 6e4d 43be e374 13be
000002e0: 4cb3 4e3c eb79 ec3d 13c3 e5be 4f99 50be
000002f0: 6eaa b1be 4b25 2b3e 3f27 0cbe f01f 14bf
00000300: 9869 ba3e 8c0a 1dbe 25eb dfbe 0734 41be
00000310: 9fba 54be 1754 ab3b 9625 e03d 09d8 95be
00000320: dfac 8c3e 9a16 ab3d 3e7e bfbd 206e 1b3e
00000330: 03a0 83be 65f6 153e d5c6 70be 12d2 083e
00000340: 6c83 45bc 2258 cd3d 74e3 82be 7542 ad3e
00000350: 1f01 db3c 8963 de3d f374 9a3d b6a0 01bf
00000360: 4c46 f7be 1a4a 913d 51b5 0b3d d20e 063d
00000370: 7493 86bd bf4e 9e3d e8f9 3a3a 83ce 1d3d
00000380: 2062 a53e 6ec1 dbbe a57a 7dbe a70a 7bbe
00000390: a1de f7bd 7172 363e 7f74 66be 33de bc3d
000003a0: fccf c83c d590 b33e 8468 053e 78c2 453e
000003b0: e383 88be fece c0be efa9 4d3d 43b7 85be
000003c0: 3e72 91bd 26df 44be 686b d83d be2e 733e
000003d0: a8df 873e f01a b03e b8d5 0d3e dd57 b0be
000003e0: d1b0 5d3e 4843 98bd db1f 01bd ac24 c4be
000003f0: d775 e3be c3d4 1e3d b76d 8c3e 647d ffbe
0.070830956 -0.07651147 0.12382535 0.045784544 0.103781536 0.37297028 -0.211808 0.09257358
0.0560059 -0.44380283 0.26057553 0.079889916 -0.016768938 -0.35057008 0.08473632 0.21075317
0.20252003 0.15069863 -0.22410564 -0.3303983 0.3092997 -0.11685042 0.3048416 -0.1396677
-0.31850427 -0.2321148 -0.28154698 0.11495594 -0.47864354 0.25025877 0.32372504 0.081400804
0.012900407 0.25582838 -0.14255306 -0.8432341 -0.15274988 0.20282222 -0.29807252 0.33955574
-0.15898018 0.32888922 -0.26439166 0.13247177 0.12799773 0.28397763 0.16206624 0.2105902
-0.46811488 0.17724732 -0.16659445 0.3089621 -0.003778101 0.12057655 -0.21898845 0.030028323
0.5281988 0.060169075 0.27193466 -0.38440222 -0.051897757 -0.16495197 -0.077451244 -0.42152512
0.14106792 0.2676035 0.19219984 -0.27105615 0.1445039 -0.26849148 -0.05637446 -0.40977648
-0.15037246 0.30305204 0.047480382 0.23102185 -0.005577274 -0.060556922 -0.016179942 -0.40848488
-0.13167547 0.23616567 -0.16787729 0.12684546 -0.06858354 -0.40846047 0.16752484 0.22556418
-0.102777 -0.36933312 0.15992081 -0.50633967 0.35054457 -0.26108715 0.13402613 0.115534775
0.08133471 -0.016865524 -0.05586215 -0.08229959 -0.8613918 0.43482634 0.10056615 0.14838952
0.10771754 0.11003159 -0.6787017 0.1758973 -0.0841943 -0.050950702 -0.19794126 0.15282486
0.08890259 -0.3553317 0.25108325 0.18097737 0.062138863 0.18841238 -0.32809925 -0.23064332
0.15569104 -0.17860189 0.09539034 0.1318651 0.020843359 -0.47220564 0.31323394 -0.20879367
-0.4858941 -0.15860331 0.13399993 -0.4182582 0.14080559 0.026325135 0.2828328 0.10931634
0.004008852 -0.07147943 0.096293606 -0.119519964 0.1983709 0.07955052 0.24979281 0.06910203
-0.08557854 -0.36423624 0.24495202 0.1296891 0.31147462 0.30377305 -0.020682273 0.2969302
0.17645513 0.119427554 0.38874173 0.17749237 0.3242479 0.25737336 -0.4647033 -0.35446137
-0.15777433 -0.0645975 0.285628 -0.34903342 0.33270207 0.16611896 -0.08927582 -0.32550472
0.023615962 -0.30244783 0.07092728 0.13674484 -0.026703337 0.2527601 0.28485757 -0.11294818
-0.1624532 0.18812215 0.11731549 0.18151411 -0.27499756 0.10048942 -0.19072506 -0.14400057
0.01261599 0.115466915 -0.44875392 -0.20370983 -0.3470034 0.16713445 -0.13686846 -0.5786123
0.36408687 -0.15336055 -0.4373409 -0.18867503 -0.20774315 0.00522853 0.10944669 -0.29266384
0.2747564 0.0835392 -0.09350251 0.15178728 -0.25708017 0.14644773 -0.23513348 0.13361385
-0.012055259 0.100265756 -0.25564158 0.33839765 0.026733933 0.108588286 0.075418375 -0.5063585
-0.4829582 0.07094212 0.034108464 0.032728978 -0.06571093 0.077298634 0.0007132576 0.038527023
0.32301426 -0.42921013 -0.24753816 -0.24515782 -0.1210301 0.17817093 -0.22505377 0.09222069
0.024513237 0.35071436 0.13028151 0.19312465 -0.26663122 -0.37657923 0.05021089 -0.2611638
-0.07101868 -0.1922575 0.10567361 0.237483 0.26537824 0.34395552 0.13851058 -0.34442034
0.21649481 -0.07434708 -0.03152452 -0.38309228 -0.44425842 0.038777124 0.27427456 -0.49900353

linear1.bias f4 [64]
00000000: 4410 8c3d 5da9 7c3e 6e79 153e 01d3 563e
00000010: 17af 543c 345a 573e 869d a73e 6f31 b83d
00000020: af51 aa3d ae4a cebb e6bc dbbd 8290 15bd
00000030: f88e aabd f7b5 893e 0808 b23d c489 703b
00000040: 6079 373d 4919 d2be 2c87 95be 7fa3 843e
00000050: 3625 78bd 32d7 9abe 72d3 1f3d 5f5f acbc
00000060: 9d81 083e e8b6 0b3e 784d 743e fb38 4a3e
00000070: 3fcb a83d f3d4 753d 94b2 29bd ddf8 2d3d
00000080: 5e26 22bd 4b3c e9bd 02b3 a23e 3fb3 6abe
00000090: 2794 a43e d2bd 3f3d 8c0a 46be a83d 423e
000000a0: e8dc 11bd 6391 f83c 84f4 1a3e 329c adbe
000000b0: 53d1 b93e 13cd 97bb 8438 083e 4361 3d3e
000000c0: bac3 b5be 4b50 a7be 16cc 63be ad56 143e
000000d0: 27ef 833e 51fc 37be acb9 82be 6769 3dbe
000000e0: 6e52 6ebe 1db8 bbbe da98 8d3e e203 9bbe
000000f0: 2385 8abd 0626 e2bd 44f9 3ebe 441d f83d
0.0683904 0.24673982 0.14597103 0.20978929 0.012981198 0.21030504 0.32737368 0.08993804
0.08316361 -0.0062955236 -0.10729389 -0.036514767 -0.083280504 0.2689664 0.08692938 0.0036703208
0.044793487 -0.41034916 -0.2920469 0.25905988 -0.060582362 -0.30242306 0.03902001 -0.02104157
0.13330694 0.13643992 0.23857677 0.19748299 0.08241891 0.060017537 -0.04143007 0.042473663
-0.03958737 -0.11388453 0.31777197 -0.2291994 0.3214428 0.046811886 -0.19339961 0.18968832
-0.035611063 0.030342763 0.15132338 -0.3390823 0.36292514 -0.004632601 0.13302809 0.18494134
-0.3550089 -0.32678446 -0.22245821 0.14486189 0.25768396 -0.17967345 -0.2553228 -0.18497239
-0.23273632 -0.36663905 0.2765568 -0.302764 -0.06763675 -0.11042409 -0.18649775 0.12114957

linear2.weight f4 [128, 64]
00000000: 5a6b 8c3d 0ee9 e93d 457b 9fbd fd1f 09be
00000010: 9ed6 6fbe ea80 7c3d e2de d9bd 1cac a7bc
00000020: 6265 813d 0636 3b3c c651 4bbe 62ee 1dbb
00000030: 51dc f13b f457 c63c db0f 34bd 125a b7bd
00000040: 4b04 10be bac5 523d 81c8 163c 25ea bdbc
00000050: 23be 17be 6221 503c 77fd 1f3e f1c1 50be
00000060: 61da 86be 26be 7e3d 8ad6 303d 6407 d0bd
00000070: 287a 37be 2d53 ec3d df86 043e 7693 3cbe
00000080: ab12 dabd f9e6 44bd 85bd b23c f247 0a3e
00000090: 14d7 66bd bfae bfbd 1e6d 2bbd 138a a7bd
000000a0: a62a 203e 2805 9f3d 85e2 653d 9882 7f3d
000000b0: 84fc 31be a71d 81be dcec 2dbc bcfb 58bb
000000c0: 7a41 d3bd c3ad e5bd 7d6d 643d 974a f33d
000000d0: 5210 65bd 25e3 3a3d 2a73 6b3c aac9 7a3d
000000e0: 55e2 00bc cbae f03d eb7f 3cbd bc98 b2bd
000000f0: 3d47 2e3e 27ba 943d ccb3 37bd 240c b33d
00000100: c766 e8bd e1e0 9f3c db03 c03d db56 74bd
00000110: e7f5 56be bf35 46be 9ac3 923d 3435 ed3d
00000120: a976 b4bd ce97 0b3d 4454 babc 579e 23bd
00000130: 2c56 b3bd ea5b a03d ae26 f43d 6f9e 7e3e
00000140: c430 023d d05c 85bd b0e7 493d b193 e6bd
00000150: 0b75 8d3d b5fa 81bd 9853 cabd 55a2 b8bd
00000160: 6758 c93d fe25 07be 68aa 253e 7963 7abd
00000170: 7982 0b3d ffec 3a3e bc91 04be a180 9dbd
00000180: 916d 9bbd c985 1f3e 4408 f93d 6628 66bd
00000190: 7efe 00bd 40de 39b7 2c7a c63d 953c 69bd
000001a0: e65a 793b 32b0 ca3d 9228 413d 8e07 123e
000001b0: a0f7 abbd ffcd 483d 2b33 033e 9e5e 69bd
000001c0: 8d34 e43d ffb9 9cbc c559 66bd 786a 913d
000001d0: 4d46 bdbc ae92 05bd 3ecd c2bd 6654 a2bd
000001e0: 65b9 d03c 82d3 dfbc f33d 80bd c081 29be
000001f0: aebd cabd 3cc3 85bb 1674 b43e 9422 993d
00000200: 179d 0b3e 4b25 b73d a5b8 083e 7755 21bd
00000210: 615e 3fbd 4129 36bc 53c5 26be 45b3 b4bd
00000220: c6f2 7cbc 19ad 6aba b4e2 91bd 4a41 183e
00000230: a43b 7dbc 8a0e 003e 7e20 08bc e7bf aebc
00000240: b0ef 00be 4580 b83d 80fa ff3d 9e0a 753d
00000250: fef6 4abd 3c3c f63c 95c7 cfbd bd11 8cbe
00000260: 90b0 ae3d a8f0 27b9 3b4f 84bd 63ed 20bd
00000270: 93aa 003d caec 303c 0846 9bbb 31bb cfbc
00000280: 80fb 363e db65 d2bc 02a6 813e d421 33bd
00000290: 4df7 253e 9e1f 1f3c 7444 723d b3e4 b23c
000002a0: 5cc0 09be a6dd 923d 0cb1 b0bd a925 5fbd
000002b0: 927b aabd 97a0 9d3c 6686 0f3a e300 de3d
000002c0: ba2e 043e 5a30 cd3d 6e68 43be 1165 083e
000002d0: 8877 af3d dc03 f8bd b940 b83d a95a f93c
000002e0: 384f b2bd c1c1 e03d 267b 1ebe 2655 05be
000002f0: a28d 1d3d e7ca d7bd 27b1 35be 2ce7 1bbd
00000300: 7e45 0ebe 9be2 bc3d 8bf5 683d bea5 d9bd
00000310: 3ccf 90bd 5d76 f0bb bd09 afbc 7128 27bc
00000320: 5af4 b6bb 100b a8bd 35d1 d33d 2e10 853d
00000330: 6cd4 74be 6b86 e4bd 24aa a6be a036 dd3d
00000340: dd08 8cbd ee0c 0bbe 2dc9 bf3d 53f4 06be
00000350: 0845 a93d 4ac3 98bd 36ff aebd 2985 3fbe
00000360: 9311 ae3c ac9c 483d ccd0 56bb ab96 9ebd
00000370: c60f 62be 75f9 203e c881 0fbd 0914 51be
00000380: 5d1f d6bd 948b 123e ee1f c4bd 4ad9 d93c
00000390: c8f2 313d 9a48 e33d 93f8 99bd 3eec 52bd
000003a0: 252d 273e ca07 9cbe a6a8 df3d 957e 063e
000003b0: c2ff 7d3d 987f 6cbe ac92 18bd 39da 153d
000003c0: 8644 e7bc 58f7 60bc eaf2 82bc 87a0 ee3c
000003d0: 273d f6bc a253 d73c 7c48 003e 01e7 4c3d
000003e0: f4fc c8bd 27e9 093c 3a52 2ebe 0643 dcbd
000003f0: b20d b7bd 854a 7fbd b8f8 843b 01b8 cfbc
0.06856413 0.11421405 -0.07787184 -0.13391109 -0.23421714 0.06164638 -0.10638215 -0.02046781
0.06318165 0.011426454 -0.19855413 -0.0024098386 0.007381 0.024211861 -0.043960433 -0.089527264
-0.14064138 0.051458098 0.009203077 -0.023182938 -0.14818625 0.012703272 0.15624033 -0.20386483
-0.26338485 0.06219306 0.04317335 -0.1015766 -0.17917693 0.11539302 0.12942074 -0.18415627
-0.10648092 -0.048071835 0.021818886 0.13504007 -0.05635746 -0.09359502 -0.04185211 -0.081806324
0.15641269 0.07764655 0.05612423 0.062380403 -0.17381483 -0.25217935 -0.010615554 -0.003310903
-0.10315223 -0.11214783 0.05576848 0.11879461 -0.055923767 0.04562678 0.014370719 0.061227478
-0.007866462 0.11752089 -0.04602043 -0.08720538 0.17019363 0.07262068 -0.044849202 0.0874255
-0.11347728 0.01951641 0.09375735 -0.059653144 -0.20992242 -0.1935644 0.07166214 0.11582413
-0.08811695 0.03408032 -0.02274526 -0.039945927 -0.0875667 0.07830031 0.1192144 0.24865125
0.031784788 -0.06511843 0.04929322 -0.11258639 0.0690709 -0.06346647 -0.098792255 -0.090153374
0.098313145 -0.13198087 0.16178286 -0.06113002 0.034059975 0.1825447 -0.12946218 -0.0769055
-0.075892575 0.15578379 0.1215978 -0.05619087 -0.031492703 -1.1078606e-05 0.09691271 -0.05694254
0.0038048564 0.09896888 0.04715783 0.14260694 -0.0839684 0.04902458 0.12812488 -0.056975
0.11142836 -0.019131659 -0.056237955 0.071003854 -0.023104811 -0.032610588 -0.09511803 -0.07926254
0.025479028 -0.027322534 -0.06261816 -0.16553402 -0.0989946 -0.0040821116 0.35244817 0.074772984
0.13634144 0.0894266 0.13351686 -0.039388146 -0.046720866 -0.011118234 -0.1628621 -0.088232554
-0.015438741 -0.0008952185 -0.07123318 0.14868656 -0.015456114 0.12505546 -0.008308528 -0.02133174
-0.12591434 0.090088405 0.12498951 0.05982458 -0.049551956 0.030058019 -0.10145489 -0.27357283
0.085297704 -0.00016016013 -0.064604245 -0.03928889 0.031412672 0.010798642 -0.004738573 -0.025357815
0.17869377 -0.025683334 0.25321966 -0.043733433 0.16207619 0.009712128 0.059147313 0.021837568
-0.13452286 0.07171182 -0.08627519 -0.054479275 -0.083243504 0.019241614 0.0005475044 0.10840013
0.1290845 0.10018988 -0.19082806 0.13319804 0.08567721 -0.12110111 0.0899672 0.030438738
-0.08706516 0.109744556 -0.15476665 -0.13020763 0.03846515 -0.105367474 -0.1774336 -0.03806226
-0.13893697 0.09222909 0.056874793 -0.10627316 -0.07070777 -0.0073383288 -0.021366948 -0.010202513
-0.005583328 -0.08205235 0.103426374 0.06497227 -0.23909158 -0.11158451 -0.32551682 0.108014345
-0.06837628 -0.13579151 0.09364543 -0.1317914 0.0826512 -0.074591234 -0.085447714 -0.1870314
0.021248614 0.04897754 -0.0032778261 -0.077435814 -0.2207633 0.1572016 -0.03503588 -0.20417799
-0.10455201 0.14311057 -0.095764026 0.02659287 0.043444425 0.11097832 -0.07518115 -0.05149483
0.16325815 -0.30474693 0.10920839 0.13134225 0.062011488 -0.23095548 -0.037249252 0.036585066
-0.028230917 -0.013730846 -0.015984971 0.02912928 -0.030058457 0.026284996 0.1252765 0.05002499
-0.09813872 0.008417404 -0.17023554 -0.10754971 -0.08938159 -0.062326927 0.00405797 -0.025356295

linear2.bias f4 [128]
00000000: 0f02 c6bd 7dc1 d1bd d59e 6e3d fe88 cd3d
00000010: 9f1d d3bd d4f7 d63d f45c a33d e236 f2bd
00000020: be00 823d 58ae 113c d99a 5e3d 3d0d c63d
00000030: 4721 95bc 1253 c2bd f69f 94bb 9492 973d
00000040: d8b4 933d 6ccf a6bd 8821 d33d b30d d73d
00000050: 441b f33d ae33 05be 0989 34bd 5b7d 09bd
00000060: 3420 dabd 5da6 fa3d 9e4b 093e 7845 b43d
00000070: 7ac5 233e ade8 e3bb 8db1 1a3e 1d26 abbc
00000080: f1c9 80bd f749 333d 71bf a5bd 9005 8f3d
00000090: 855d bebc 20f0 963d ffa7 47bd 810f 1b3c
000000a0: ea5b 47bd 1be4 07be c85d a0bd e344 fdbb
000000b0: 5d19 c8bd d51f cf3d 0646 9fbc 149b 9fbd
000000c0: 383a 043e e0e2 adbd d4a4 853d c9a6 0d3e
000000d0: d01a 4a3d 2712 23bd 2876 28bd 4ebe 993d
000000e0: 871c ea3c 3081 b2bd 3f91 513c 0e47 8cbd
000000f0: 0acc f33c 14de 793b 5271 bd3d fa9b d4bd
00000100: 4306 4e3d b731 de3d 1d57 ac3d f932 3cbd
00000110: 3680 d43d 2c37 f6bd 08d0 6bbd c99a f43d
00000120: 875b b53c 42db ac3b 7983 013d 5bde e53d
00000130: 23be 06bd e5d0 c2bd c39c 33bd 4ecb 9a3c
00000140: a7e4 8fbd 93b0 163c 4c17 183e 09ad be3d
00000150: ef92 88bd b3eb bebd d38f c4bd 685d 46bd
00000160: 763a 80bd 5048 ef3d 2583 6c3b 0020 7737
00000170: 9c46 b13c 1edc b43d 536e 0d3e 0cbe cfbd
00000180: 3e51 213e fa16 53bb a0cd de3d cdd2 073e
00000190: 14a0 d33c 277c a83b 18a0 173e 73ba 1b3e
000001a0: df8b 9dbd bd94 833d 523b 4d3b 8393 363e
000001b0: 4fd1 e5bc 773f 1bbc 00e9 ac3d 99ef 3f3d
000001c0: 01ce b6bd 3d9f c7bd 7550 03be d47c d1bc
000001d0: 5e57 dd3d 548a 283d 5c0f 683d b2be df3d
000001e0: d825 c73c ae80 dd3d e2ad 5d3d 31ed 3c3d
000001f0: 7c68 f7bc c330 6b3d 1ef0 383d f287 cd3d
-0.096683614 -0.10241983 0.058256943 0.10035895 -0.10308384 0.10496488 0.07976714 -0.11826874
0.06347798 0.008891664 0.054346893 0.09670494 -0.018204344 -0.09488501 -0.0045356704 0.074010044
0.072122276 -0.08145031 0.1030913 0.1050066 0.11870435 -0.13007995 -0.044076 -0.033566814
-0.106506735 0.122387625 0.13407752 0.088023126 0.159933 -0.0069552273 0.15106793 -0.020892197
-0.06288517 0.04377171 -0.08093155 0.06983483 -0.023237953 0.07370019 -0.048744198 0.009464146
-0.04867164 -0.13270609 -0.07830387 -0.007729159 -0.09770463 0.10113493 -0.01944257 -0.07793251
0.12912834 -0.084905386 0.06525579 0.13833155 0.049341977 -0.039812233 -0.041128308 0.07507001
0.028578056 -0.08716047 0.012790977 -0.0684949 0.02976038 0.0038126754 0.0925013 -0.10381313
0.05029894 0.10849326 0.08415053 -0.04594705 0.10376017 -0.12022242 -0.05757144 0.119435854
0.02213837 0.005275161 0.031619523 0.112240516 -0.032896172 -0.095125 -0.04385067 0.018895771
-0.07026034 0.009197372 0.14852637 0.093103476 -0.0666865 -0.093223 -0.09597745 -0.048428923
-0.062611505 0.116837144 0.003608891 1.4729798e-05 0.021640114 0.088310465 0.13811617 -0.101436704
0.15753648 -0.003220974 0.108790636 0.13264008 0.025833167 0.0051417532 0.14807165 0.15207843
-0.07692694 0.06424854 0.0031315875 0.17829709 -0.028053908 -0.00947558 0.08442879 0.046859358
-0.08926011 -0.09747169 -0.1282366 -0.025572218 0.108076796 0.041147545 0.056655273 0.10925044
0.024310037 0.10815559 0.054120906 0.04612464 -0.03020119 0.05741955 0.04515087 0.10035695

linear3.weight f4 [64, 128]
00000000: a3a7 c4bb 6fd3 4a3c 5c0f 953c 678d ecbd
00000010: e69a 183d a274 763c da13 d03c 5b81 d13d
00000020: 640c a43d a296 6d3d c917 18bc 50f8 ad3c
00000030: b404 56bd 26e4 333c 6d1c ec3d c077 a03c
00000040: a47c 04be d56f d13c 4ff9 6cbd 65c2 35be
00000050: 6d46 4cbd f1d5 1cbe 22a6 343a 8dc9 67bd
00000060: a0c9 66bd 3be8 1f3e 1db3 1cbe 62a6 e1bc
00000070: 4490 f93d 1cc1 c73d 51f2 023d b0c7 88bd
00000080: b401 27bd e6cb 023d 0878 683c 9b81 c6bd
00000090: 4b57 8abd 9ad2 963d dd31 12be 6b56 01bb
000000a0: 84ab 78bc 54cf a3bc bfa0 a03c 8418 513e
000000b0: 1119 efbe 710d 18bd d196 01bd f175 723c
000000c0: 5d1c 9dbd 6624 15be 66b7 9dbc df40 2bbd
000000d0: cf92 983d ca6f 24be cce0 323d 419d 933d
000000e0: 7de8 7f3d 9d6b f2bd cb85 4c3d 9074 803c
000000f0: 65e3 8c3d 71c6 fabc d828 6abc 7d09 bb3c
00000100: a377 a8bd 1388 183e d675 cc3b 9d63 45be
00000110: fd82 d3bc 52d4 8d3d c776 12be 5377 90bb
00000120: 3605 f2bd 1900 fd3c e9a5 ebbd 4492 993d
00000130: 8c99 d6bd 95e3 e2bd 41a6 13be 7b24 1cbd
00000140: 8c56 82bd 2989 ecbd c5c8 343d ce27 8bbb
00000150: d123 6a3d bb63 2abd 7697 07be 57c1 32bc
00000160: 3c69 863d 948a 33bd 1df7 d03c e775 07bd
00000170: 0b3c 5dbd e466 7fbb 84a8 4dbd 4860 85bc
00000180: b7f9 40bc 30b4 c53d 6efa 4e3d 7c6d cbbc
00000190: 551e 92bd 7416 8e3c f49c 993d e039 c8bc
000001a0: 89d4 0abe d845 0ebc 2a33 17be 8ad5 dd3c
000001b0: 2a83 6a3d 250d ad3c 2276 0a3e 5206 0d3d
000001c0: 2ea2 853d 3257 3fbb 798d 763e 1458 2cbe
000001d0: bdac c6bd 541a 623d 6b92 093e 7bab d13d
000001e0: a798 96bd 1741 d93c 5160 703d f7a7 693c
000001f0: 5070 893c 13af 8cbd e61f 423d 7c5b 06bd
00000200: a923 ee3d 8aea 80bd 8c15 b53d 72f4 2cbd
00000210: c6cb f4bd d717 913d 912c 9b3d 6f77 543d
00000220: 73ab 1bbc 7645 afbd 9798 53bd ce6b 2b3d
00000230: e300 943d aa6c e23d fa2d c43d 99d1 603d
00000240: faa3 7bbe efc5 d33c 53ad e53d 222b bcbd
00000250: a4af 17bc 2b8e 9b3c 496a b3bc 7de0 a03c
00000260: 9f09 94bd d3f6 993d 1784 c93c d2a2 bc3d
00000270: fc72 b93d 06df be3c 37ef d33d d420 4c3d
00000280: 6786 923d 1126 0a3d bc1a 6f3d 1a24 0f3e
00000290: 11b9 593d e373 553d d96b 293c b763 b03b
000002a0: 25ce a13b 0a3c 8f3c df3b d83d a056 513e
000002b0: 30f8 58be e9c0 b6bc 0a3b 64bd 2c2b 8c3c
000002c0: e95c 0abd f2e3 0fbd 75ea bcbd b415 10bd
000002d0: 8ac2 5b3d 58ba 973d dc6c e13d 26d0 1abd
000002e0: 094f 313d d59a b8bd fb90 25bd 6b26 a1bd
000002f0: 2e72 bc3d 1cb3 e63d 46ef 223c 0990 ecbc
00000300: 0288 a93b 7d0b 16bc bee3 efbb d1a3 793d
00000310: 2815 223c d4fa 283d b63c b1bd ae50 f83d
00000320: 10f0 003d e252 293c 13cb 323c d6a7 96bc
00000330: c53c c239 052d 463d 4fff 94bd f804 d83c
00000340: 713b 46bb 98a6 c93d af07 6e3d 9aa8 9f3d
00000350: c3d6 b93d fc46 583d be10 97bd 8072 fb3c
00000360: e7f4 a23c 8ed5 273d e961 02bd 068c ca3d
00000370: 9b63 333d 0b0c 9dbd 2ae3 10bd d29f 833d
00000380: a316 3f3e 5763 3abd b75a 5b3d 14b7 ea3c
00000390: fb56 9c3d 9242 abbd 3b4f 903d b728 f93d
000003a0: b750 35be f724 60bd 0841 abbd 364e b33d
000003b0: f7ec 0b3c 566e 43bb c12e f43d b30f babc
000003c0: bed7 94bc 139d e93d 7869 023e 666a 3dbd
000003d0: b0af c73d b477 64bc b672 8c3c 5112 913c
000003e0: 7db3 b0bd 2d93 f4bd eaf3 373a 445f 11bc
000003f0: 6e72 c23d ad71 383c 5486 8dbd 67fa 46bd
-0.006001429 0.012379511 0.0181958 -0.11550408 0.037257098 0.015042456 0.025400091 0.10229751
0.08010176 0.058004983 -0.009283015 0.021236569 -0.05225058 0.010979688 0.11528859 0.019588351
-0.12938172 0.025566021 -0.057854947 -0.17749937 -0.04987185 -0.15315987 0.0006891211 -0.0565887
-0.05634463 0.15615933 -0.15302701 -0.027545158 0.121857196 0.097536296 0.031969372 -0.06678712
-0.04077311 0.031932734 0.014188774 -0.09692689 -0.06754931 0.07364388 -0.14276834 -0.0019735347
-0.015177611 -0.019996323 0.0196079 0.20419508 -0.46698812 -0.037122194 -0.03163797 0.014798627
-0.076714255 -0.14564666 -0.01925249 -0.041809913 0.074498765 -0.16058269 0.043671414 0.07207728
0.062477577 -0.11836932 0.049932282 0.015680581 0.068793096 -0.030612202 -0.0142919645 0.022831673
-0.08225944 0.14895658 0.006239633 -0.1927628 -0.025819296 0.069252625 -0.14303122 -0.004408756
-0.118174 0.030883836 -0.11506254 0.07498601 -0.104785055 -0.11078564 -0.1441889 -0.038120728
-0.06364164 -0.11549599 0.04413678 -0.0042466884 0.057163063 -0.041599017 -0.13241372 -0.010910354
0.065630406 -0.04383333 0.025508458 -0.033071425 -0.05401234 -0.003897124 -0.050209537 -0.016281262
-0.011778287 0.09653509 0.050531797 -0.02483248 -0.071346916 0.01734469 0.075006396 -0.02444166
-0.13557638 -0.008683644 -0.14765611 0.027079362 0.057253994 0.021124432 0.13521627 0.034429856
0.06525074 -0.002919626 0.24077405 -0.16830474 -0.09700916 0.05520089 0.1343476 0.102377854
-0.07353335 0.026520295 0.058685604 0.014261237 0.016777188 -0.0686933 0.047393702 -0.03280209
0.116278954 -0.06294735 0.08842 -0.04222531 -0.11952929 0.07084625 0.0757686 0.051871713
-0.009501326 -0.085581705 -0.051659193 0.041850857 0.07226732 0.11055882 0.09579082 0.054887388
-0.24574271 0.025851218 0.112146996 -0.091879144 -0.009258185 0.01898869 -0.021901267 0.019638294
-0.072283976 0.07517781 0.024599118 0.09210743 0.09055135 0.023299705 0.10348361 0.049835995
0.071545415 0.03372771 0.058375105 0.13978615 0.05315501 0.05211247 0.010340654 0.0053829807
0.0049379044 0.017484684 0.105582945 0.20443201 -0.21188426 -0.022308784 -0.055720367 0.01711043
-0.033780012 -0.035129495 -0.09224407 -0.035176948 0.053652324 0.07408589 0.110070914 -0.037796162
0.043288264 -0.09013907 -0.040421467 -0.07868656 0.092014655 0.11264631 0.009944743 -0.028877275
0.005173684 -0.009158012 -0.00732085 0.060947243 0.009892739 0.041254833 -0.08654158 0.121247634
0.03147894 0.010334702 0.0109126745 -0.018390577 0.0003704784 0.048382778 -0.07275259 0.026369557
-0.0030247832 0.09846228 0.058112796 0.0779583 0.09074166 0.05280207 -0.0737624 0.030694246
0.01989217 0.040975146 -0.031831656 0.098899886 0.043796163 -0.07668313 -0.03537289 0.06426968
0.18660979 -0.045504894 0.05355331 0.028651752 0.07633778 -0.08362307 0.07046362 0.12165969
-0.17706572 -0.054722752 -0.08362013 0.08755152 0.008540384 -0.0029820404 0.1192298 -0.022712564
-0.01816928 0.11406913 0.12735546 -0.046244048 0.097503066 -0.013944555 0.017144542 0.01770893
-0.08627985 -0.11942134 0.0007017242 -0.008872811 0.09494482 0.011257571 -0.06910387 -0.048578646

linear3.bias f4 [64]
00000000: 39c4 923d 1d07 203e d23b 123e bb1f bf3d
00000010: 0549 54bd 5628 983d 6e89 c5b9 e03a 85bd
00000020: 1e48 ae3d 8bdf 8e3c 46c8 82bc 88fd 11be
00000030: c0f2 45bd 205f c63d c3cd aa3c 397a 98bd
00000040: 4e3b 4abd 7dd2 783d add9 8d3d 9faf c7bb
00000050: c2ab a53d 5853 633d e08c bf37 6676 c33d
00000060: 2e14 853d d9c1 23bd 9022 a43d 143e 363d
00000070: 1aeb b9bc f6fa 603d 3c05 07be c5db 8a3d
00000080: bb37 de3d e502 c4bd 3701 a83d 872c f7bb
00000090: 5904 c4bc f7e5 8b3c 8127 9fbd 8931 bc3d
000000a0: e6ff 5db9 110b 7abd 33b5 fb3d bb6d bdbd
000000b0: 46b8 afba c491 8ebc 546c d6bd 50e7 ccbd
000000c0: f006 873a d619 f43d 14ca 21bc 41e7 553d
000000d0: 2996 1e3d 4a2c 3b3d 505f 463d 21f2 bbbd
000000e0: 0076 933c 6115 4d3c 9f53 6ebd fe4a 80bd
000000f0: a5a0 c23d 4cf3 243e 4181 d53d 3c2a 023d
0.07166333 0.15627714 0.14280632 0.09332224 -0.05182745 0.074295685 -0.0003767716 -0.0650537
0.08509849 0.017440578 -0.015964638 -0.14256871 -0.048327208 0.096861124 0.020850068 -0.07445187
-0.049372964 0.060747612 0.06926284 -0.0060939337 0.08089401 0.055499405 2.2834574e-05 0.09544067
0.064979896 -0.03997979 0.08014405 0.044492796 -0.022695113 0.054926835 -0.1318559 0.06780199
0.108504735 -0.095708646 0.08203357 -0.00754315 -0.023927854 0.01707743 -0.07771207 0.091891356
-0.00021171532 -0.06104571 0.122904204 -0.09249445 -0.0013406358 -0.01740349 -0.10469881 -0.10005057
0.001030175 0.1191899 -0.009874839 0.052222494 0.038717423 0.045696534 0.04843074 -0.09177042
0.018000603 0.012517304 -0.058185216 -0.062643036 0.09503297 0.16108435 0.10425044 0.03177856

linear4.weight f4 [8, 64]
00000000: 3e00 f2bd e6f0 1bbe d0d6 c4bc 4b44 903b
00000010: 8c84 9bbd c458 ecbd ff5b cdbd 3478 5ebd
00000020: 6d55 84bd d042 a2bd 015c 1c3e 0fa2 923d
00000030: 5cc5 9abd 85e1 ebbd fd69 9ebd 39b5 52bb
00000040: 4406 143e 2757 fbbd b8cf cb3c cf34 a83d
00000050: a02b e43d 05eb 913d 217a 57be 3390 0ebe
00000060: 9612 04be 1cbe bc3d 3104 c0bd 63f3 bfbd
00000070: 858f b63d a1ff d13c 99b4 bd3d c518 afbd
00000080: 12c7 b03c a09a 223e 11cc d8bc a60c 97bd
00000090: 4ddd ba3d a51f 7c3d 8b24 3abd 73d9 26be
000000a0: cdd6 b73d a431 f7bd 3165 633e 6eb9 8fbd
000000b0: 1cdc f4bc 1d31 8bbd 8b5b a2bd 0dae 033b
000000c0: d23d c73d d341 493d da26 98bd 19af efbd
000000d0: 57aa d5bd ded7 1fbd c982 cebd d73b 6e3c
000000e0: 48cf a73d c6d1 5fbd 5d69 8e3d 83e8 8ebd
000000f0: b8b4 0f3e 9ec3 073e acb3 90bd 827f 153b
00000100: ae50 02be 991c 9dbd c1eb 1cbb 1108 8fbd
00000110: 9860 38bb 2fd9 56bd 8595 c5bd ff47 bfbc
00000120: 23ae 283d 96ca 76bd 1e71 88bc 6396 dfbc
00000130: c10d 75bd d3f0 4ebe b32d 013e 8b6a 813c
00000140: 5827 e33c d507 543d df07 6dbd b0f2 b8bc
00000150: 7c6f 353e e167 16be 3d05 9abd 8460 29be
00000160: bcd4 f8bd b863 0a3d f136 f1bd 8b9b 54bd
00000170: 9baa fb3c 7c72 8739 dd93 c73d 12f4 333c
00000180: 1ba0 75bd 5f1e 91bd 75e9 4a3e 4f31 f53d
00000190: 589a fe3c 138b 633d 6454 a4bc 6069 263e
000001a0: 03a3 4dbc 5424 393c de50 7f3d 1c2f f1bd
000001b0: 5857 e5bd b57a a63d 4a00 ac3d edfe 883d
000001c0: 31b1 d03d c07b eb3d 1bd6 aabd 2443 02be
000001d0: a8ca e53d efd4 c2bd 71da 8b3d caa2 92bc
000001e0: dbcd 20be e30e 073e 0ada d03d eb43 ca3d
000001f0: af8e 9abc b2ea 1bbe bca5 75bd b818 ca3d
00000200: a9eb adbd 9f8c ea3c 56db 13bd 7c53 0ebd
00000210: 2f6d 58bd 5f26 23be 4af1 c8bd f793 d83d
00000220: fc0c 993c 739a 833d ff25 3ebe a472 123e
00000230: 4a68 ec3b 0561 743e d669 9dbd bd7d 2d3c
00000240: df3c 503d f38f e1bd a19e 28be f111 573d
00000250: a26f a6bd cb61 ffbd b065 2a3c b043 99bd
00000260: 1b0b f03a 91e1 d1bd 0118 35be 45e5 b9bd
00000270: 0da5 b1bd 0f3a 74bc 0d3b a0bd 324d efbc
00000280: cd34 91bd 6873 c83d 90de 0c3c 42b6 fdbd
00000290: 38d2 68bc 8975 9f3d 473c ffbd 5f76 033e
000002a0: 0b96 103d b704 9abd 877c 01be 4d73 92bc
000002b0: 2a02 6b3d 8b60 393c 9560 5b3d 420d 903c
000002c0: aee1 9ebd f2df 29be 8162 c2bd 3d67 dcbd
000002d0: ba9d 34bd 83fe c93d ff1f 17be 22f8 c93d
000002e0: 3424 e1bd 56e6 02bd 14e9 f7bd c2f7 85bd
000002f0: c079 b13b 4550 e7bb 880f 093e 221c 743d
00000300: 108d 72bd 5bb9 cabd 60f8 313e 170b b0bd
00000310: 59ae 85bc 6211 ac3c eb99 5cba 7bae d43d
00000320: 138f ee3d ff01 823d 64eb 1bbe 34df d5bc
00000330: 2c0a b23d 8e32 653d 6fc2 403c 181f 7f3d
00000340: ca46 86bd 99b7 b7bd 8dec 093d 4086 d6bc
00000350: 27b6 8dbd 0df2 b4bd 3277 4c3d d58f c2bd
00000360: c7c8 53bd df7d 393d 338a 4e3e 9c27 1b3d
00000370: bb79 423d 8e8c a5bd a5f2 03bd e38d afbd
00000380: 43e4 993c 8224 1f3d c8af 873d 70f7 74bc
00000390: 18a8 68bd c4b1 f0bc ae98 d3bc bf31 eabd
000003a0: ab73 45be c905 52bd 2f8b b3bd c5cf a93c
000003b0: 1481 9bbc 869f 9a3b 2546 37bc f976 473d
000003c0: 07bb d23d a08c 11be 7a04 18bd 0f1c 12be
000003d0: cff3 d93c 5454 c13d e81d 863c a6b9 eebd
000003e0: 1e40 923d cd6e 68bb 9364 41bd fd54 603d
000003f0: e715 febd 1fd5 b83d 2312 43be c242 aabd
-0.118164524 -0.15228614 -0.024028212 0.0044026724 -0.07593641 -0.11540368 -0.100273125 -0.054313853
-0.06461606 -0.079229 0.15269472 0.071598165 -0.075571746 -0.11517624 -0.077350594 -0.0032151474
0.14455515 -0.12272482 0.024879321 0.082131974 0.11141133 0.071249045 -0.21042682 -0.13922195
-0.12897715 0.09215948 -0.093757994 -0.09372594 0.08914093 0.025634589 0.09262962 -0.08549646
0.0215793 0.15879297 -0.026464494 -0.073754594 0.09124241 0.061553616 -0.045445006 -0.16293888
0.08976517 -0.12070015 0.2220657 -0.0701779 -0.029890113 -0.06796477 -0.07927617 0.0020092756
0.09728588 0.04913504 -0.07429285 -0.11703319 -0.1043288 -0.039024226 -0.10083539 0.014540634
0.08193833 -0.054643415 0.0695369 -0.06977942 0.14033782 0.13258216 -0.0706552 0.0022811596
-0.1272609 -0.0767147 -0.0023944231 -0.069839604 -0.0028133746 -0.052453216 -0.09647659 -0.02334976
0.041181695 -0.060251795 -0.016655501 -0.02729339 -0.05982757 -0.20209055 0.12615089 0.015797874
0.027728721 0.05176528 -0.057868835 -0.02257666 0.17718309 -0.14688064 -0.075205304 -0.16540724
-0.12149951 0.033786505 -0.11778057 -0.05190615 0.030721 0.00025834504 0.097449996 0.010983484
-0.05996714 -0.07085871 0.1981562 0.119722955 0.031079456 0.055552553 -0.020059772 0.16251135
-0.012551072 0.011300165 0.06233298 -0.117765635 -0.111983 0.08128873 0.08398493 0.06689248
0.101900466 0.11498213 -0.083416186 -0.12720925 0.11220294 -0.0951327 0.06828774 -0.01789989
-0.15703528 0.13189273 0.10197838 0.098762356 -0.018866865 -0.15226248 -0.05997251 0.09867996
-0.08492214 0.028631506 -0.036097847 -0.034747586 -0.0528385 -0.15932606 -0.09811647 0.10575097
0.01868295 0.06425943 -0.18569182 0.14301544 0.0072145807 0.23865135 -0.07686202 0.01058906
0.0508393 -0.11013784 -0.16466762 0.052507345 -0.08126761 -0.124698244 0.010400221 -0.074836135
0.0018313857 -0.102481015 -0.17684938 -0.09076933 -0.08674059 -0.01490642 -0.07823763 -0.029211614
-0.07090149 0.09787637 0.008597985 -0.123882785 -0.014210276 0.0778609 -0.12462669 0.12838124
0.035299342 -0.075204305 -0.1264516 -0.017877245 0.05737511 0.011314522 0.053558905 0.017584447
-0.07757889 -0.16589335 -0.094914444 -0.10761879 -0.044095732 0.098629974 -0.147583 0.09861781
-0.10993233 -0.031957947 -0.12105003 -0.06541397 0.005416125 -0.0070591294 0.13384831 0.059597142
-0.05921656 -0.09898635 0.17379904 -0.08595865 -0.016318487 0.021004383 -0.00084152695 0.10384842
0.11648383 0.06348037 -0.15226513 -0.026107408 0.086933464 0.055956416 0.011765107 0.062285513
-0.06556471 -0.08970565 0.033672858 -0.026187062 -0.069195084 -0.0883523 0.04991836 -0.0950009
-0.051705148 0.045286056 0.20169906 0.03787957 0.047479372 -0.08083449 -0.032213826 -0.085719846
0.018785601 0.038853176 0.066253245 -0.014951572 -0.05680093 -0.02938164 -0.02582964 -0.114352696
-0.19282405 -0.05127505 -0.087667815 0.020728955 -0.018982448 0.0047187237 -0.011186157 0.048697446
0.10289579 -0.142138 -0.037113644 -0.14268516 0.026605515 0.094399124 0.016371682 -0.116565034
0.07141136 -0.0035466433 -0.047215056 0.05476855 -0.12406521 0.090250246 -0.19049887 -0.08313514

linear4.bias f4 [8]
00000000: 0ddf 533c 94ae 13be 027e d6bd 6760 ccbd
00000010: 207f d73b 4e1a e1bd 828c 56be fd0a afbd
0.012931597 -0.14422065 -0.10473253 -0.09979325 0.006576434 -0.10991345 -0.20952037 -0.08547018
